…
2019-06-16 13:30:20 DEBUG core:2215 Start to close ProcessPool before deleting object
2019-06-16 13:30:21 DEBUG __main__:567 Write data into predicted_fname: ./new-dataset/models/diff_weights/method-sin/activation-None/state-0/markov_chain/mu-0/sigma-110/units-20/nb_plays-20/points-1000/input_dim-1/predictions-mu-0-sigma-110-points-1000/activation#-tanh/state#-0/units#-100/nb_plays#-100/loss-mle/predictions-batch_size-10.csv
_________________________________________________________________
Layer (type)                 Output Shape              Param #   
=================================================================
operator (Operator)          (1, 10, 1)                1         
_________________________________________________________________
my_dense (MyDense)           (1, 10, 100)              200       
_________________________________________________________________
my_simple_dense (MySimpleDen (1, 10, 1)                101       
=================================================================
Total params: 302
Trainable params: 302
Non-trainable params: 0
_________________________________________________________________
_________________________________________________________________
Layer (type)                 Output Shape              Param #   
=================================================================
operator_1 (Operator)        (1, 10, 1)                1         
_________________________________________________________________
my_dense_1 (MyDense)         (1, 10, 100)              200       
_________________________________________________________________
my_simple_dense_1 (MySimpleD (1, 10, 1)                101       
=================================================================
Total params: 302
Trainable params: 302
Non-trainable params: 0
_________________________________________________________________
_________________________________________________________________
Layer (type)                 Output Shape              Param #   
=================================================================
operator_2 (Operator)        (1, 10, 1)                1         
_________________________________________________________________
my_dense_2 (MyDense)         (1, 10, 100)              200       
_________________________________________________________________
my_simple_dense_2 (MySimpleD (1, 10, 1)                101       
=================================================================
Total params: 302
Trainable params: 302
Non-trainable params: 0
_________________________________________________________________
_________________________________________________________________
Layer (type)                 Output Shape              Param #   
=================================================================
operator_3 (Operator)        (1, 10, 1)                1         
_________________________________________________________________
my_dense_3 (MyDense)         (1, 10, 100)              200       
_________________________________________________________________
my_simple_dense_3 (MySimpleD (1, 10, 1)                101       
=================================================================
Total params: 302
Trainable params: 302
Non-trainable params: 0
_________________________________________________________________
_________________________________________________________________
Layer (type)                 Output Shape              Param #   
=================================================================
operator_4 (Operator)        (1, 10, 1)                1         
_________________________________________________________________
my_dense_4 (MyDense)         (1, 10, 100)              200       
_________________________________________________________________
my_simple_dense_4 (MySimpleD (1, 10, 1)                101       
=================================================================
Total params: 302
Trainable params: 302
Non-trainable params: 0
_________________________________________________________________
_________________________________________________________________
Layer (type)                 Output Shape              Param #   
=================================================================
operator_5 (Operator)        (1, 10, 1)                1         
_________________________________________________________________
my_dense_5 (MyDense)         (1, 10, 100)              200       
_________________________________________________________________
my_simple_dense_5 (MySimpleD (1, 10, 1)                101       
=================================================================
Total params: 302
Trainable params: 302
Non-trainable params: 0
_________________________________________________________________
_________________________________________________________________
Layer (type)                 Output Shape              Param #   
=================================================================
operator_6 (Operator)        (1, 10, 1)                1         
_________________________________________________________________
my_dense_6 (MyDense)         (1, 10, 100)              200       
_________________________________________________________________
my_simple_dense_6 (MySimpleD (1, 10, 1)                101       
=================================================================
Total params: 302
Trainable params: 302
Non-trainable params: 0
_________________________________________________________________
_________________________________________________________________
Layer (type)                 Output Shape              Param #   
=================================================================
operator_7 (Operator)        (1, 10, 1)                1         
_________________________________________________________________
my_dense_7 (MyDense)         (1, 10, 100)              200       
_________________________________________________________________
my_simple_dense_7 (MySimpleD (1, 10, 1)                101       
=================================================================
Total params: 302
Trainable params: 302
Non-trainable params: 0
_________________________________________________________________
_________________________________________________________________
Layer (type)                 Output Shape              Param #   
=================================================================
operator_8 (Operator)        (1, 10, 1)                1         
_________________________________________________________________
my_dense_8 (MyDense)         (1, 10, 100)              200       
_________________________________________________________________
my_simple_dense_8 (MySimpleD (1, 10, 1)                101       
=================================================================
Total params: 302
Trainable params: 302
Non-trainable params: 0
_________________________________________________________________
_________________________________________________________________
Layer (type)                 Output Shape              Param #   
=================================================================
operator_9 (Operator)        (1, 10, 1)                1         
_________________________________________________________________
my_dense_9 (MyDense)         (1, 10, 100)              200       
_________________________________________________________________
my_simple_dense_9 (MySimpleD (1, 10, 1)                101       
=================================================================
Total params: 302
Trainable params: 302
Non-trainable params: 0
_________________________________________________________________
_________________________________________________________________
Layer (type)                 Output Shape              Param #   
=================================================================
operator_10 (Operator)       (1, 10, 1)                1         
_________________________________________________________________
my_dense_10 (MyDense)        (1, 10, 100)              200       
_________________________________________________________________
my_simple_dense_10 (MySimple (1, 10, 1)                101       
=================================================================
Total params: 302
Trainable params: 302
Non-trainable params: 0
_________________________________________________________________
_________________________________________________________________
Layer (type)                 Output Shape              Param #   
=================================================================
operator_11 (Operator)       (1, 10, 1)                1         
_________________________________________________________________
my_dense_11 (MyDense)        (1, 10, 100)              200       
_________________________________________________________________
my_simple_dense_11 (MySimple (1, 10, 1)                101       
=================================================================
Total params: 302
Trainable params: 302
Non-trainable params: 0
_________________________________________________________________
_________________________________________________________________
Layer (type)                 Output Shape              Param #   
=================================================================
operator_12 (Operator)       (1, 10, 1)                1         
_________________________________________________________________
my_dense_12 (MyDense)        (1, 10, 100)              200       
_________________________________________________________________
my_simple_dense_12 (MySimple (1, 10, 1)                101       
=================================================================
Total params: 302
Trainable params: 302
Non-trainable params: 0
_________________________________________________________________
_________________________________________________________________
Layer (type)                 Output Shape              Param #   
=================================================================
operator_13 (Operator)       (1, 10, 1)                1         
_________________________________________________________________
my_dense_13 (MyDense)        (1, 10, 100)              200       
_________________________________________________________________
my_simple_dense_13 (MySimple (1, 10, 1)                101       
=================================================================
Total params: 302
Trainable params: 302
Non-trainable params: 0
_________________________________________________________________
_________________________________________________________________
Layer (type)                 Output Shape              Param #   
=================================================================
operator_14 (Operator)       (1, 10, 1)                1         
_________________________________________________________________
my_dense_14 (MyDense)        (1, 10, 100)              200       
_________________________________________________________________
my_simple_dense_14 (MySimple (1, 10, 1)                101       
=================================================================
Total params: 302
Trainable params: 302
Non-trainable params: 0
_________________________________________________________________
_________________________________________________________________
Layer (type)                 Output Shape              Param #   
=================================================================
operator_15 (Operator)       (1, 10, 1)                1         
_________________________________________________________________
my_dense_15 (MyDense)        (1, 10, 100)              200       
_________________________________________________________________
my_simple_dense_15 (MySimple (1, 10, 1)                101       
=================================================================
Total params: 302
Trainable params: 302
Non-trainable params: 0
_________________________________________________________________
_________________________________________________________________
Layer (type)                 Output Shape              Param #   
=================================================================
operator_16 (Operator)       (1, 10, 1)                1         
_________________________________________________________________
my_dense_16 (MyDense)        (1, 10, 100)              200       
_________________________________________________________________
my_simple_dense_16 (MySimple (1, 10, 1)                101       
=================================================================
Total params: 302
Trainable params: 302
Non-trainable params: 0
_________________________________________________________________
_________________________________________________________________
Layer (type)                 Output Shape              Param #   
=================================================================
operator_17 (Operator)       (1, 10, 1)                1         
_________________________________________________________________
my_dense_17 (MyDense)        (1, 10, 100)              200       
_________________________________________________________________
my_simple_dense_17 (MySimple (1, 10, 1)                101       
=================================================================
Total params: 302
Trainable params: 302
Non-trainable params: 0
_________________________________________________________________
_________________________________________________________________
Layer (type)                 Output Shape              Param #   
=================================================================
operator_18 (Operator)       (1, 10, 1)                1         
_________________________________________________________________
my_dense_18 (MyDense)        (1, 10, 100)              200       
_________________________________________________________________
my_simple_dense_18 (MySimple (1, 10, 1)                101       
=================================================================
Total params: 302
Trainable params: 302
Non-trainable params: 0
_________________________________________________________________
_________________________________________________________________
Layer (type)                 Output Shape              Param #   
=================================================================
operator_19 (Operator)       (1, 10, 1)                1         
_________________________________________________________________
my_dense_19 (MyDense)        (1, 10, 100)              200       
_________________________________________________________________
my_simple_dense_19 (MySimple (1, 10, 1)                101       
=================================================================
Total params: 302
Trainable params: 302
Non-trainable params: 0
_________________________________________________________________
_________________________________________________________________
Layer (type)                 Output Shape              Param #   
=================================================================
operator_20 (Operator)       (1, 10, 1)                1         
_________________________________________________________________
my_dense_20 (MyDense)        (1, 10, 100)              200       
_________________________________________________________________
my_simple_dense_20 (MySimple (1, 10, 1)                101       
=================================================================
Total params: 302
Trainable params: 302
Non-trainable params: 0
_________________________________________________________________
_________________________________________________________________
Layer (type)                 Output Shape              Param #   
=================================================================
operator_21 (Operator)       (1, 10, 1)                1         
_________________________________________________________________
my_dense_21 (MyDense)        (1, 10, 100)              200       
_________________________________________________________________
my_simple_dense_21 (MySimple (1, 10, 1)                101       
=================================================================
Total params: 302
Trainable params: 302
Non-trainable params: 0
_________________________________________________________________
_________________________________________________________________
Layer (type)                 Output Shape              Param #   
=================================================================
operator_22 (Operator)       (1, 10, 1)                1         
_________________________________________________________________
my_dense_22 (MyDense)        (1, 10, 100)              200       
_________________________________________________________________
my_simple_dense_22 (MySimple (1, 10, 1)                101       
=================================================================
Total params: 302
Trainable params: 302
Non-trainable params: 0
_________________________________________________________________
_________________________________________________________________
Layer (type)                 Output Shape              Param #   
=================================================================
operator_23 (Operator)       (1, 10, 1)                1         
_________________________________________________________________
my_dense_23 (MyDense)        (1, 10, 100)              200       
_________________________________________________________________
my_simple_dense_23 (MySimple (1, 10, 1)                101       
=================================================================
Total params: 302
Trainable params: 302
Non-trainable params: 0
_________________________________________________________________
_________________________________________________________________
Layer (type)                 Output Shape              Param #   
=================================================================
operator_24 (Operator)       (1, 10, 1)                1         
_________________________________________________________________
my_dense_24 (MyDense)        (1, 10, 100)              200       
_________________________________________________________________
my_simple_dense_24 (MySimple (1, 10, 1)                101       
=================================================================
Total params: 302
Trainable params: 302
Non-trainable params: 0
_________________________________________________________________
_________________________________________________________________
Layer (type)                 Output Shape              Param #   
=================================================================
operator_25 (Operator)       (1, 10, 1)                1         
_________________________________________________________________
my_dense_25 (MyDense)        (1, 10, 100)              200       
_________________________________________________________________
my_simple_dense_25 (MySimple (1, 10, 1)                101       
=================================================================
Total params: 302
Trainable params: 302
Non-trainable params: 0
_________________________________________________________________
_________________________________________________________________
Layer (type)                 Output Shape              Param #   
=================================================================
operator_26 (Operator)       (1, 10, 1)                1         
_________________________________________________________________
my_dense_26 (MyDense)        (1, 10, 100)              200       
_________________________________________________________________
my_simple_dense_26 (MySimple (1, 10, 1)                101       
=================================================================
Total params: 302
Trainable params: 302
Non-trainable params: 0
_________________________________________________________________
_________________________________________________________________
Layer (type)                 Output Shape              Param #   
=================================================================
operator_27 (Operator)       (1, 10, 1)                1         
_________________________________________________________________
my_dense_27 (MyDense)        (1, 10, 100)              200       
_________________________________________________________________
my_simple_dense_27 (MySimple (1, 10, 1)                101       
=================================================================
Total params: 302
Trainable params: 302
Non-trainable params: 0
_________________________________________________________________
_________________________________________________________________
Layer (type)                 Output Shape              Param #   
=================================================================
operator_28 (Operator)       (1, 10, 1)                1         
_________________________________________________________________
my_dense_28 (MyDense)        (1, 10, 100)              200       
_________________________________________________________________
my_simple_dense_28 (MySimple (1, 10, 1)                101       
=================================================================
Total params: 302
Trainable params: 302
Non-trainable params: 0
_________________________________________________________________
_________________________________________________________________
Layer (type)                 Output Shape              Param #   
=================================================================
operator_29 (Operator)       (1, 10, 1)                1         
_________________________________________________________________
my_dense_29 (MyDense)        (1, 10, 100)              200       
_________________________________________________________________
my_simple_dense_29 (MySimple (1, 10, 1)                101       
=================================================================
Total params: 302
Trainable params: 302
Non-trainable params: 0
_________________________________________________________________
_________________________________________________________________
Layer (type)                 Output Shape              Param #   
=================================================================
operator_30 (Operator)       (1, 10, 1)                1         
_________________________________________________________________
my_dense_30 (MyDense)        (1, 10, 100)              200       
_________________________________________________________________
my_simple_dense_30 (MySimple (1, 10, 1)                101       
=================================================================
Total params: 302
Trainable params: 302
Non-trainable params: 0
_________________________________________________________________
_________________________________________________________________
Layer (type)                 Output Shape              Param #   
=================================================================
operator_31 (Operator)       (1, 10, 1)                1         
_________________________________________________________________
my_dense_31 (MyDense)        (1, 10, 100)              200       
_________________________________________________________________
my_simple_dense_31 (MySimple (1, 10, 1)                101       
=================================================================
Total params: 302
Trainable params: 302
Non-trainable params: 0
_________________________________________________________________
_________________________________________________________________
Layer (type)                 Output Shape              Param #   
=================================================================
operator_32 (Operator)       (1, 10, 1)                1         
_________________________________________________________________
my_dense_32 (MyDense)        (1, 10, 100)              200       
_________________________________________________________________
my_simple_dense_32 (MySimple (1, 10, 1)                101       
=================================================================
Total params: 302
Trainable params: 302
Non-trainable params: 0
_________________________________________________________________
_________________________________________________________________
Layer (type)                 Output Shape              Param #   
=================================================================
operator_33 (Operator)       (1, 10, 1)                1         
_________________________________________________________________
my_dense_33 (MyDense)        (1, 10, 100)              200       
_________________________________________________________________
my_simple_dense_33 (MySimple (1, 10, 1)                101       
=================================================================
Total params: 302
Trainable params: 302
Non-trainable params: 0
_________________________________________________________________
_________________________________________________________________
Layer (type)                 Output Shape              Param #   
=================================================================
operator_34 (Operator)       (1, 10, 1)                1         
_________________________________________________________________
my_dense_34 (MyDense)        (1, 10, 100)              200       
_________________________________________________________________
my_simple_dense_34 (MySimple (1, 10, 1)                101       
=================================================================
Total params: 302
Trainable params: 302
Non-trainable params: 0
_________________________________________________________________
_________________________________________________________________
Layer (type)                 Output Shape              Param #   
=================================================================
operator_35 (Operator)       (1, 10, 1)                1         
_________________________________________________________________
my_dense_35 (MyDense)        (1, 10, 100)              200       
_________________________________________________________________
my_simple_dense_35 (MySimple (1, 10, 1)                101       
=================================================================
Total params: 302
Trainable params: 302
Non-trainable params: 0
_________________________________________________________________
_________________________________________________________________
Layer (type)                 Output Shape              Param #   
=================================================================
operator_36 (Operator)       (1, 10, 1)                1         
_________________________________________________________________
my_dense_36 (MyDense)        (1, 10, 100)              200       
_________________________________________________________________
my_simple_dense_36 (MySimple (1, 10, 1)                101       
=================================================================
Total params: 302
Trainable params: 302
Non-trainable params: 0
_________________________________________________________________
_________________________________________________________________
Layer (type)                 Output Shape              Param #   
=================================================================
operator_37 (Operator)       (1, 10, 1)                1         
_________________________________________________________________
my_dense_37 (MyDense)        (1, 10, 100)              200       
_________________________________________________________________
my_simple_dense_37 (MySimple (1, 10, 1)                101       
=================================================================
Total params: 302
Trainable params: 302
Non-trainable params: 0
_________________________________________________________________
_________________________________________________________________
Layer (type)                 Output Shape              Param #   
=================================================================
operator_38 (Operator)       (1, 10, 1)                1         
_________________________________________________________________
my_dense_38 (MyDense)        (1, 10, 100)              200       
_________________________________________________________________
my_simple_dense_38 (MySimple (1, 10, 1)                101       
=================================================================
Total params: 302
Trainable params: 302
Non-trainable params: 0
_________________________________________________________________
_________________________________________________________________
Layer (type)                 Output Shape              Param #   
=================================================================
operator_39 (Operator)       (1, 10, 1)                1         
_________________________________________________________________
my_dense_39 (MyDense)        (1, 10, 100)              200       
_________________________________________________________________
my_simple_dense_39 (MySimple (1, 10, 1)                101       
=================================================================
Total params: 302
Trainable params: 302
Non-trainable params: 0
_________________________________________________________________
_________________________________________________________________
Layer (type)                 Output Shape              Param #   
=================================================================
operator_40 (Operator)       (1, 10, 1)                1         
_________________________________________________________________
my_dense_40 (MyDense)        (1, 10, 100)              200       
_________________________________________________________________
my_simple_dense_40 (MySimple (1, 10, 1)                101       
=================================================================
Total params: 302
Trainable params: 302
Non-trainable params: 0
_________________________________________________________________
_________________________________________________________________
Layer (type)                 Output Shape              Param #   
=================================================================
operator_41 (Operator)       (1, 10, 1)                1         
_________________________________________________________________
my_dense_41 (MyDense)        (1, 10, 100)              200       
_________________________________________________________________
my_simple_dense_41 (MySimple (1, 10, 1)                101       
=================================================================
Total params: 302
Trainable params: 302
Non-trainable params: 0
_________________________________________________________________
_________________________________________________________________
Layer (type)                 Output Shape              Param #   
=================================================================
operator_42 (Operator)       (1, 10, 1)                1         
_________________________________________________________________
my_dense_42 (MyDense)        (1, 10, 100)              200       
_________________________________________________________________
my_simple_dense_42 (MySimple (1, 10, 1)                101       
=================================================================
Total params: 302
Trainable params: 302
Non-trainable params: 0
_________________________________________________________________
_________________________________________________________________
Layer (type)                 Output Shape              Param #   
=================================================================
operator_43 (Operator)       (1, 10, 1)                1         
_________________________________________________________________
my_dense_43 (MyDense)        (1, 10, 100)              200       
_________________________________________________________________
my_simple_dense_43 (MySimple (1, 10, 1)                101       
=================================================================
Total params: 302
Trainable params: 302
Non-trainable params: 0
_________________________________________________________________
_________________________________________________________________
Layer (type)                 Output Shape              Param #   
=================================================================
operator_44 (Operator)       (1, 10, 1)                1         
_________________________________________________________________
my_dense_44 (MyDense)        (1, 10, 100)              200       
_________________________________________________________________
my_simple_dense_44 (MySimple (1, 10, 1)                101       
=================================================================
Total params: 302
Trainable params: 302
Non-trainable params: 0
_________________________________________________________________
_________________________________________________________________
Layer (type)                 Output Shape              Param #   
=================================================================
operator_45 (Operator)       (1, 10, 1)                1         
_________________________________________________________________
my_dense_45 (MyDense)        (1, 10, 100)              200       
_________________________________________________________________
my_simple_dense_45 (MySimple (1, 10, 1)                101       
=================================================================
Total params: 302
Trainable params: 302
Non-trainable params: 0
_________________________________________________________________
_________________________________________________________________
Layer (type)                 Output Shape              Param #   
=================================================================
operator_46 (Operator)       (1, 10, 1)                1         
_________________________________________________________________
my_dense_46 (MyDense)        (1, 10, 100)              200       
_________________________________________________________________
my_simple_dense_46 (MySimple (1, 10, 1)                101       
=================================================================
Total params: 302
Trainable params: 302
Non-trainable params: 0
_________________________________________________________________
_________________________________________________________________
Layer (type)                 Output Shape              Param #   
=================================================================
operator_47 (Operator)       (1, 10, 1)                1         
_________________________________________________________________
my_dense_47 (MyDense)        (1, 10, 100)              200       
_________________________________________________________________
my_simple_dense_47 (MySimple (1, 10, 1)                101       
=================================================================
Total params: 302
Trainable params: 302
Non-trainable params: 0
_________________________________________________________________
_________________________________________________________________
Layer (type)                 Output Shape              Param #   
=================================================================
operator_48 (Operator)       (1, 10, 1)                1         
_________________________________________________________________
my_dense_48 (MyDense)        (1, 10, 100)              200       
_________________________________________________________________
my_simple_dense_48 (MySimple (1, 10, 1)                101       
=================================================================
Total params: 302
Trainable params: 302
Non-trainable params: 0
_________________________________________________________________
_________________________________________________________________
Layer (type)                 Output Shape              Param #   
=================================================================
operator_49 (Operator)       (1, 10, 1)                1         
_________________________________________________________________
my_dense_49 (MyDense)        (1, 10, 100)              200       
_________________________________________________________________
my_simple_dense_49 (MySimple (1, 10, 1)                101       
=================================================================
Total params: 302
Trainable params: 302
Non-trainable params: 0
_________________________________________________________________
_________________________________________________________________
Layer (type)                 Output Shape              Param #   
=================================================================
operator_50 (Operator)       (1, 10, 1)                1         
_________________________________________________________________
my_dense_50 (MyDense)        (1, 10, 100)              200       
_________________________________________________________________
my_simple_dense_50 (MySimple (1, 10, 1)                101       
=================================================================
Total params: 302
Trainable params: 302
Non-trainable params: 0
_________________________________________________________________
_________________________________________________________________
Layer (type)                 Output Shape              Param #   
=================================================================
operator_51 (Operator)       (1, 10, 1)                1         
_________________________________________________________________
my_dense_51 (MyDense)        (1, 10, 100)              200       
_________________________________________________________________
my_simple_dense_51 (MySimple (1, 10, 1)                101       
=================================================================
Total params: 302
Trainable params: 302
Non-trainable params: 0
_________________________________________________________________
_________________________________________________________________
Layer (type)                 Output Shape              Param #   
=================================================================
operator_52 (Operator)       (1, 10, 1)                1         
_________________________________________________________________
my_dense_52 (MyDense)        (1, 10, 100)              200       
_________________________________________________________________
my_simple_dense_52 (MySimple (1, 10, 1)                101       
=================================================================
Total params: 302
Trainable params: 302
Non-trainable params: 0
_________________________________________________________________
_________________________________________________________________
Layer (type)                 Output Shape              Param #   
=================================================================
operator_53 (Operator)       (1, 10, 1)                1         
_________________________________________________________________
my_dense_53 (MyDense)        (1, 10, 100)              200       
_________________________________________________________________
my_simple_dense_53 (MySimple (1, 10, 1)                101       
=================================================================
Total params: 302
Trainable params: 302
Non-trainable params: 0
_________________________________________________________________
_________________________________________________________________
Layer (type)                 Output Shape              Param #   
=================================================================
operator_54 (Operator)       (1, 10, 1)                1         
_________________________________________________________________
my_dense_54 (MyDense)        (1, 10, 100)              200       
_________________________________________________________________
my_simple_dense_54 (MySimple (1, 10, 1)                101       
=================================================================
Total params: 302
Trainable params: 302
Non-trainable params: 0
_________________________________________________________________
_________________________________________________________________
Layer (type)                 Output Shape              Param #   
=================================================================
operator_55 (Operator)       (1, 10, 1)                1         
_________________________________________________________________
my_dense_55 (MyDense)        (1, 10, 100)              200       
_________________________________________________________________
my_simple_dense_55 (MySimple (1, 10, 1)                101       
=================================================================
Total params: 302
Trainable params: 302
Non-trainable params: 0
_________________________________________________________________
_________________________________________________________________
Layer (type)                 Output Shape              Param #   
=================================================================
operator_56 (Operator)       (1, 10, 1)                1         
_________________________________________________________________
my_dense_56 (MyDense)        (1, 10, 100)              200       
_________________________________________________________________
my_simple_dense_56 (MySimple (1, 10, 1)                101       
=================================================================
Total params: 302
Trainable params: 302
Non-trainable params: 0
_________________________________________________________________
_________________________________________________________________
Layer (type)                 Output Shape              Param #   
=================================================================
operator_57 (Operator)       (1, 10, 1)                1         
_________________________________________________________________
my_dense_57 (MyDense)        (1, 10, 100)              200       
_________________________________________________________________
my_simple_dense_57 (MySimple (1, 10, 1)                101       
=================================================================
Total params: 302
Trainable params: 302
Non-trainable params: 0
_________________________________________________________________
_________________________________________________________________
Layer (type)                 Output Shape              Param #   
=================================================================
operator_58 (Operator)       (1, 10, 1)                1         
_________________________________________________________________
my_dense_58 (MyDense)        (1, 10, 100)              200       
_________________________________________________________________
my_simple_dense_58 (MySimple (1, 10, 1)                101       
=================================================================
Total params: 302
Trainable params: 302
Non-trainable params: 0
_________________________________________________________________
_________________________________________________________________
Layer (type)                 Output Shape              Param #   
=================================================================
operator_59 (Operator)       (1, 10, 1)                1         
_________________________________________________________________
my_dense_59 (MyDense)        (1, 10, 100)              200       
_________________________________________________________________
my_simple_dense_59 (MySimple (1, 10, 1)                101       
=================================================================
Total params: 302
Trainable params: 302
Non-trainable params: 0
_________________________________________________________________
_________________________________________________________________
Layer (type)                 Output Shape              Param #   
=================================================================
operator_60 (Operator)       (1, 10, 1)                1         
_________________________________________________________________
my_dense_60 (MyDense)        (1, 10, 100)              200       
_________________________________________________________________
my_simple_dense_60 (MySimple (1, 10, 1)                101       
=================================================================
Total params: 302
Trainable params: 302
Non-trainable params: 0
_________________________________________________________________
_________________________________________________________________
Layer (type)                 Output Shape              Param #   
=================================================================
operator_61 (Operator)       (1, 10, 1)                1         
_________________________________________________________________
my_dense_61 (MyDense)        (1, 10, 100)              200       
_________________________________________________________________
my_simple_dense_61 (MySimple (1, 10, 1)                101       
=================================================================
Total params: 302
Trainable params: 302
Non-trainable params: 0
_________________________________________________________________
_________________________________________________________________
Layer (type)                 Output Shape              Param #   
=================================================================
operator_62 (Operator)       (1, 10, 1)                1         
_________________________________________________________________
my_dense_62 (MyDense)        (1, 10, 100)              200       
_________________________________________________________________
my_simple_dense_62 (MySimple (1, 10, 1)                101       
=================================================================
Total params: 302
Trainable params: 302
Non-trainable params: 0
_________________________________________________________________
_________________________________________________________________
Layer (type)                 Output Shape              Param #   
=================================================================
operator_63 (Operator)       (1, 10, 1)                1         
_________________________________________________________________
my_dense_63 (MyDense)        (1, 10, 100)              200       
_________________________________________________________________
my_simple_dense_63 (MySimple (1, 10, 1)                101       
=================================================================
Total params: 302
Trainable params: 302
Non-trainable params: 0
_________________________________________________________________
_________________________________________________________________
Layer (type)                 Output Shape              Param #   
=================================================================
operator_64 (Operator)       (1, 10, 1)                1         
_________________________________________________________________
my_dense_64 (MyDense)        (1, 10, 100)              200       
_________________________________________________________________
my_simple_dense_64 (MySimple (1, 10, 1)                101       
=================================================================
Total params: 302
Trainable params: 302
Non-trainable params: 0
_________________________________________________________________
_________________________________________________________________
Layer (type)                 Output Shape              Param #   
=================================================================
operator_65 (Operator)       (1, 10, 1)                1         
_________________________________________________________________
my_dense_65 (MyDense)        (1, 10, 100)              200       
_________________________________________________________________
my_simple_dense_65 (MySimple (1, 10, 1)                101       
=================================================================
Total params: 302
Trainable params: 302
Non-trainable params: 0
_________________________________________________________________
_________________________________________________________________
Layer (type)                 Output Shape              Param #   
=================================================================
operator_66 (Operator)       (1, 10, 1)                1         
_________________________________________________________________
my_dense_66 (MyDense)        (1, 10, 100)              200       
_________________________________________________________________
my_simple_dense_66 (MySimple (1, 10, 1)                101       
=================================================================
Total params: 302
Trainable params: 302
Non-trainable params: 0
_________________________________________________________________
_________________________________________________________________
Layer (type)                 Output Shape              Param #   
=================================================================
operator_67 (Operator)       (1, 10, 1)                1         
_________________________________________________________________
my_dense_67 (MyDense)        (1, 10, 100)              200       
_________________________________________________________________
my_simple_dense_67 (MySimple (1, 10, 1)                101       
=================================================================
Total params: 302
Trainable params: 302
Non-trainable params: 0
_________________________________________________________________
_________________________________________________________________
Layer (type)                 Output Shape              Param #   
=================================================================
operator_68 (Operator)       (1, 10, 1)                1         
_________________________________________________________________
my_dense_68 (MyDense)        (1, 10, 100)              200       
_________________________________________________________________
my_simple_dense_68 (MySimple (1, 10, 1)                101       
=================================================================
Total params: 302
Trainable params: 302
Non-trainable params: 0
_________________________________________________________________
_________________________________________________________________
Layer (type)                 Output Shape              Param #   
=================================================================
operator_69 (Operator)       (1, 10, 1)                1         
_________________________________________________________________
my_dense_69 (MyDense)        (1, 10, 100)              200       
_________________________________________________________________
my_simple_dense_69 (MySimple (1, 10, 1)                101       
=================================================================
Total params: 302
Trainable params: 302
Non-trainable params: 0
_________________________________________________________________
_________________________________________________________________
Layer (type)                 Output Shape              Param #   
=================================================================
operator_70 (Operator)       (1, 10, 1)                1         
_________________________________________________________________
my_dense_70 (MyDense)        (1, 10, 100)              200       
_________________________________________________________________
my_simple_dense_70 (MySimple (1, 10, 1)                101       
=================================================================
Total params: 302
Trainable params: 302
Non-trainable params: 0
_________________________________________________________________
_________________________________________________________________
Layer (type)                 Output Shape              Param #   
=================================================================
operator_71 (Operator)       (1, 10, 1)                1         
_________________________________________________________________
my_dense_71 (MyDense)        (1, 10, 100)              200       
_________________________________________________________________
my_simple_dense_71 (MySimple (1, 10, 1)                101       
=================================================================
Total params: 302
Trainable params: 302
Non-trainable params: 0
_________________________________________________________________
_________________________________________________________________
Layer (type)                 Output Shape              Param #   
=================================================================
operator_72 (Operator)       (1, 10, 1)                1         
_________________________________________________________________
my_dense_72 (MyDense)        (1, 10, 100)              200       
_________________________________________________________________
my_simple_dense_72 (MySimple (1, 10, 1)                101       
=================================================================
Total params: 302
Trainable params: 302
Non-trainable params: 0
_________________________________________________________________
_________________________________________________________________
Layer (type)                 Output Shape              Param #   
=================================================================
operator_73 (Operator)       (1, 10, 1)                1         
_________________________________________________________________
my_dense_73 (MyDense)        (1, 10, 100)              200       
_________________________________________________________________
my_simple_dense_73 (MySimple (1, 10, 1)                101       
=================================================================
Total params: 302
Trainable params: 302
Non-trainable params: 0
_________________________________________________________________
_________________________________________________________________
Layer (type)                 Output Shape              Param #   
=================================================================
operator_74 (Operator)       (1, 10, 1)                1         
_________________________________________________________________
my_dense_74 (MyDense)        (1, 10, 100)              200       
_________________________________________________________________
my_simple_dense_74 (MySimple (1, 10, 1)                101       
=================================================================
Total params: 302
Trainable params: 302
Non-trainable params: 0
_________________________________________________________________
_________________________________________________________________
Layer (type)                 Output Shape              Param #   
=================================================================
operator_75 (Operator)       (1, 10, 1)                1         
_________________________________________________________________
my_dense_75 (MyDense)        (1, 10, 100)              200       
_________________________________________________________________
my_simple_dense_75 (MySimple (1, 10, 1)                101       
=================================================================
Total params: 302
Trainable params: 302
Non-trainable params: 0
_________________________________________________________________
_________________________________________________________________
Layer (type)                 Output Shape              Param #   
=================================================================
operator_76 (Operator)       (1, 10, 1)                1         
_________________________________________________________________
my_dense_76 (MyDense)        (1, 10, 100)              200       
_________________________________________________________________
my_simple_dense_76 (MySimple (1, 10, 1)                101       
=================================================================
Total params: 302
Trainable params: 302
Non-trainable params: 0
_________________________________________________________________
_________________________________________________________________
Layer (type)                 Output Shape              Param #   
=================================================================
operator_77 (Operator)       (1, 10, 1)                1         
_________________________________________________________________
my_dense_77 (MyDense)        (1, 10, 100)              200       
_________________________________________________________________
my_simple_dense_77 (MySimple (1, 10, 1)                101       
=================================================================
Total params: 302
Trainable params: 302
Non-trainable params: 0
_________________________________________________________________
_________________________________________________________________
Layer (type)                 Output Shape              Param #   
=================================================================
operator_78 (Operator)       (1, 10, 1)                1         
_________________________________________________________________
my_dense_78 (MyDense)        (1, 10, 100)              200       
_________________________________________________________________
my_simple_dense_78 (MySimple (1, 10, 1)                101       
=================================================================
Total params: 302
Trainable params: 302
Non-trainable params: 0
_________________________________________________________________
_________________________________________________________________
Layer (type)                 Output Shape              Param #   
=================================================================
operator_79 (Operator)       (1, 10, 1)                1         
_________________________________________________________________
my_dense_79 (MyDense)        (1, 10, 100)              200       
_________________________________________________________________
my_simple_dense_79 (MySimple (1, 10, 1)                101       
=================================================================
Total params: 302
Trainable params: 302
Non-trainable params: 0
_________________________________________________________________
_________________________________________________________________
Layer (type)                 Output Shape              Param #   
=================================================================
operator_80 (Operator)       (1, 10, 1)                1         
_________________________________________________________________
my_dense_80 (MyDense)        (1, 10, 100)              200       
_________________________________________________________________
my_simple_dense_80 (MySimple (1, 10, 1)                101       
=================================================================
Total params: 302
Trainable params: 302
Non-trainable params: 0
_________________________________________________________________
_________________________________________________________________
Layer (type)                 Output Shape              Param #   
=================================================================
operator_81 (Operator)       (1, 10, 1)                1         
_________________________________________________________________
my_dense_81 (MyDense)        (1, 10, 100)              200       
_________________________________________________________________
my_simple_dense_81 (MySimple (1, 10, 1)                101       
=================================================================
Total params: 302
Trainable params: 302
Non-trainable params: 0
_________________________________________________________________
_________________________________________________________________
Layer (type)                 Output Shape              Param #   
=================================================================
operator_82 (Operator)       (1, 10, 1)                1         
_________________________________________________________________
my_dense_82 (MyDense)        (1, 10, 100)              200       
_________________________________________________________________
my_simple_dense_82 (MySimple (1, 10, 1)                101       
=================================================================
Total params: 302
Trainable params: 302
Non-trainable params: 0
_________________________________________________________________
_________________________________________________________________
Layer (type)                 Output Shape              Param #   
=================================================================
operator_83 (Operator)       (1, 10, 1)                1         
_________________________________________________________________
my_dense_83 (MyDense)        (1, 10, 100)              200       
_________________________________________________________________
my_simple_dense_83 (MySimple (1, 10, 1)                101       
=================================================================
Total params: 302
Trainable params: 302
Non-trainable params: 0
_________________________________________________________________
_________________________________________________________________
Layer (type)                 Output Shape              Param #   
=================================================================
operator_84 (Operator)       (1, 10, 1)                1         
_________________________________________________________________
my_dense_84 (MyDense)        (1, 10, 100)              200       
_________________________________________________________________
my_simple_dense_84 (MySimple (1, 10, 1)                101       
=================================================================
Total params: 302
Trainable params: 302
Non-trainable params: 0
_________________________________________________________________
_________________________________________________________________
Layer (type)                 Output Shape              Param #   
=================================================================
operator_85 (Operator)       (1, 10, 1)                1         
_________________________________________________________________
my_dense_85 (MyDense)        (1, 10, 100)              200       
_________________________________________________________________
my_simple_dense_85 (MySimple (1, 10, 1)                101       
=================================================================
Total params: 302
Trainable params: 302
Non-trainable params: 0
_________________________________________________________________
_________________________________________________________________
Layer (type)                 Output Shape              Param #   
=================================================================
operator_86 (Operator)       (1, 10, 1)                1         
_________________________________________________________________
my_dense_86 (MyDense)        (1, 10, 100)              200       
_________________________________________________________________
my_simple_dense_86 (MySimple (1, 10, 1)                101       
=================================================================
Total params: 302
Trainable params: 302
Non-trainable params: 0
_________________________________________________________________
_________________________________________________________________
Layer (type)                 Output Shape              Param #   
=================================================================
operator_87 (Operator)       (1, 10, 1)                1         
_________________________________________________________________
my_dense_87 (MyDense)        (1, 10, 100)              200       
_________________________________________________________________
my_simple_dense_87 (MySimple (1, 10, 1)                101       
=================================================================
Total params: 302
Trainable params: 302
Non-trainable params: 0
_________________________________________________________________
_________________________________________________________________
Layer (type)                 Output Shape              Param #   
=================================================================
operator_88 (Operator)       (1, 10, 1)                1         
_________________________________________________________________
my_dense_88 (MyDense)        (1, 10, 100)              200       
_________________________________________________________________
my_simple_dense_88 (MySimple (1, 10, 1)                101       
=================================================================
Total params: 302
Trainable params: 302
Non-trainable params: 0
_________________________________________________________________
_________________________________________________________________
Layer (type)                 Output Shape              Param #   
=================================================================
operator_89 (Operator)       (1, 10, 1)                1         
_________________________________________________________________
my_dense_89 (MyDense)        (1, 10, 100)              200       
_________________________________________________________________
my_simple_dense_89 (MySimple (1, 10, 1)                101       
=================================================================
Total params: 302
Trainable params: 302
Non-trainable params: 0
_________________________________________________________________
_________________________________________________________________
Layer (type)                 Output Shape              Param #   
=================================================================
operator_90 (Operator)       (1, 10, 1)                1         
_________________________________________________________________
my_dense_90 (MyDense)        (1, 10, 100)              200       
_________________________________________________________________
my_simple_dense_90 (MySimple (1, 10, 1)                101       
=================================================================
Total params: 302
Trainable params: 302
Non-trainable params: 0
_________________________________________________________________
_________________________________________________________________
Layer (type)                 Output Shape              Param #   
=================================================================
operator_91 (Operator)       (1, 10, 1)                1         
_________________________________________________________________
my_dense_91 (MyDense)        (1, 10, 100)              200       
_________________________________________________________________
my_simple_dense_91 (MySimple (1, 10, 1)                101       
=================================================================
Total params: 302
Trainable params: 302
Non-trainable params: 0
_________________________________________________________________
_________________________________________________________________
Layer (type)                 Output Shape              Param #   
=================================================================
operator_92 (Operator)       (1, 10, 1)                1         
_________________________________________________________________
my_dense_92 (MyDense)        (1, 10, 100)              200       
_________________________________________________________________
my_simple_dense_92 (MySimple (1, 10, 1)                101       
=================================================================
Total params: 302
Trainable params: 302
Non-trainable params: 0
_________________________________________________________________
_________________________________________________________________
Layer (type)                 Output Shape              Param #   
=================================================================
operator_93 (Operator)       (1, 10, 1)                1         
_________________________________________________________________
my_dense_93 (MyDense)        (1, 10, 100)              200       
_________________________________________________________________
my_simple_dense_93 (MySimple (1, 10, 1)                101       
=================================================================
Total params: 302
Trainable params: 302
Non-trainable params: 0
_________________________________________________________________
_________________________________________________________________
Layer (type)                 Output Shape              Param #   
=================================================================
operator_94 (Operator)       (1, 10, 1)                1         
_________________________________________________________________
my_dense_94 (MyDense)        (1, 10, 100)              200       
_________________________________________________________________
my_simple_dense_94 (MySimple (1, 10, 1)                101       
=================================================================
Total params: 302
Trainable params: 302
Non-trainable params: 0
_________________________________________________________________
_________________________________________________________________
Layer (type)                 Output Shape              Param #   
=================================================================
operator_95 (Operator)       (1, 10, 1)                1         
_________________________________________________________________
my_dense_95 (MyDense)        (1, 10, 100)              200       
_________________________________________________________________
my_simple_dense_95 (MySimple (1, 10, 1)                101       
=================================================================
Total params: 302
Trainable params: 302
Non-trainable params: 0
_________________________________________________________________
_________________________________________________________________
Layer (type)                 Output Shape              Param #   
=================================================================
operator_96 (Operator)       (1, 10, 1)                1         
_________________________________________________________________
my_dense_96 (MyDense)        (1, 10, 100)              200       
_________________________________________________________________
my_simple_dense_96 (MySimple (1, 10, 1)                101       
=================================================================
Total params: 302
Trainable params: 302
Non-trainable params: 0
_________________________________________________________________
_________________________________________________________________
Layer (type)                 Output Shape              Param #   
=================================================================
operator_97 (Operator)       (1, 10, 1)                1         
_________________________________________________________________
my_dense_97 (MyDense)        (1, 10, 100)              200       
_________________________________________________________________
my_simple_dense_97 (MySimple (1, 10, 1)                101       
=================================================================
Total params: 302
Trainable params: 302
Non-trainable params: 0
_________________________________________________________________
_________________________________________________________________
Layer (type)                 Output Shape              Param #   
=================================================================
operator_98 (Operator)       (1, 10, 1)                1         
_________________________________________________________________
my_dense_98 (MyDense)        (1, 10, 100)              200       
_________________________________________________________________
my_simple_dense_98 (MySimple (1, 10, 1)                101       
=================================================================
Total params: 302
Trainable params: 302
Non-trainable params: 0
_________________________________________________________________
_________________________________________________________________
Layer (type)                 Output Shape              Param #   
=================================================================
operator_99 (Operator)       (1, 10, 1)                1         
_________________________________________________________________
my_dense_99 (MyDense)        (1, 10, 100)              200       
_________________________________________________________________
my_simple_dense_99 (MySimple (1, 10, 1)                101       
=================================================================
Total params: 302
Trainable params: 302
Non-trainable params: 0
_________________________________________________________________
