…
2019-06-17 03:35:08 DEBUG core:2215 Start to close ProcessPool before deleting object
2019-06-17 03:35:09 DEBUG __main__:567 Write data into predicted_fname: ./new-dataset/models/diff_weights/method-sin/activation-None/state-0/markov_chain/mu-0/sigma-110/units-20/nb_plays-20/points-1000/input_dim-1/predictions-mu-0-sigma-110-points-1000/activation#-tanh/state#-0/units#-200/nb_plays#-200/loss-mle/predictions-batch_size-50.csv
_________________________________________________________________
Layer (type)                 Output Shape              Param #   
=================================================================
operator (Operator)          (1, 50, 1)                1         
_________________________________________________________________
my_dense (MyDense)           (1, 50, 200)              400       
_________________________________________________________________
my_simple_dense (MySimpleDen (1, 50, 1)                201       
=================================================================
Total params: 602
Trainable params: 602
Non-trainable params: 0
_________________________________________________________________
_________________________________________________________________
Layer (type)                 Output Shape              Param #   
=================================================================
operator_1 (Operator)        (1, 50, 1)                1         
_________________________________________________________________
my_dense_1 (MyDense)         (1, 50, 200)              400       
_________________________________________________________________
my_simple_dense_1 (MySimpleD (1, 50, 1)                201       
=================================================================
Total params: 602
Trainable params: 602
Non-trainable params: 0
_________________________________________________________________
_________________________________________________________________
Layer (type)                 Output Shape              Param #   
=================================================================
operator_2 (Operator)        (1, 50, 1)                1         
_________________________________________________________________
my_dense_2 (MyDense)         (1, 50, 200)              400       
_________________________________________________________________
my_simple_dense_2 (MySimpleD (1, 50, 1)                201       
=================================================================
Total params: 602
Trainable params: 602
Non-trainable params: 0
_________________________________________________________________
_________________________________________________________________
Layer (type)                 Output Shape              Param #   
=================================================================
operator_3 (Operator)        (1, 50, 1)                1         
_________________________________________________________________
my_dense_3 (MyDense)         (1, 50, 200)              400       
_________________________________________________________________
my_simple_dense_3 (MySimpleD (1, 50, 1)                201       
=================================================================
Total params: 602
Trainable params: 602
Non-trainable params: 0
_________________________________________________________________
_________________________________________________________________
Layer (type)                 Output Shape              Param #   
=================================================================
operator_4 (Operator)        (1, 50, 1)                1         
_________________________________________________________________
my_dense_4 (MyDense)         (1, 50, 200)              400       
_________________________________________________________________
my_simple_dense_4 (MySimpleD (1, 50, 1)                201       
=================================================================
Total params: 602
Trainable params: 602
Non-trainable params: 0
_________________________________________________________________
_________________________________________________________________
Layer (type)                 Output Shape              Param #   
=================================================================
operator_5 (Operator)        (1, 50, 1)                1         
_________________________________________________________________
my_dense_5 (MyDense)         (1, 50, 200)              400       
_________________________________________________________________
my_simple_dense_5 (MySimpleD (1, 50, 1)                201       
=================================================================
Total params: 602
Trainable params: 602
Non-trainable params: 0
_________________________________________________________________
_________________________________________________________________
Layer (type)                 Output Shape              Param #   
=================================================================
operator_6 (Operator)        (1, 50, 1)                1         
_________________________________________________________________
my_dense_6 (MyDense)         (1, 50, 200)              400       
_________________________________________________________________
my_simple_dense_6 (MySimpleD (1, 50, 1)                201       
=================================================================
Total params: 602
Trainable params: 602
Non-trainable params: 0
_________________________________________________________________
_________________________________________________________________
Layer (type)                 Output Shape              Param #   
=================================================================
operator_7 (Operator)        (1, 50, 1)                1         
_________________________________________________________________
my_dense_7 (MyDense)         (1, 50, 200)              400       
_________________________________________________________________
my_simple_dense_7 (MySimpleD (1, 50, 1)                201       
=================================================================
Total params: 602
Trainable params: 602
Non-trainable params: 0
_________________________________________________________________
_________________________________________________________________
Layer (type)                 Output Shape              Param #   
=================================================================
operator_8 (Operator)        (1, 50, 1)                1         
_________________________________________________________________
my_dense_8 (MyDense)         (1, 50, 200)              400       
_________________________________________________________________
my_simple_dense_8 (MySimpleD (1, 50, 1)                201       
=================================================================
Total params: 602
Trainable params: 602
Non-trainable params: 0
_________________________________________________________________
_________________________________________________________________
Layer (type)                 Output Shape              Param #   
=================================================================
operator_9 (Operator)        (1, 50, 1)                1         
_________________________________________________________________
my_dense_9 (MyDense)         (1, 50, 200)              400       
_________________________________________________________________
my_simple_dense_9 (MySimpleD (1, 50, 1)                201       
=================================================================
Total params: 602
Trainable params: 602
Non-trainable params: 0
_________________________________________________________________
_________________________________________________________________
Layer (type)                 Output Shape              Param #   
=================================================================
operator_10 (Operator)       (1, 50, 1)                1         
_________________________________________________________________
my_dense_10 (MyDense)        (1, 50, 200)              400       
_________________________________________________________________
my_simple_dense_10 (MySimple (1, 50, 1)                201       
=================================================================
Total params: 602
Trainable params: 602
Non-trainable params: 0
_________________________________________________________________
_________________________________________________________________
Layer (type)                 Output Shape              Param #   
=================================================================
operator_11 (Operator)       (1, 50, 1)                1         
_________________________________________________________________
my_dense_11 (MyDense)        (1, 50, 200)              400       
_________________________________________________________________
my_simple_dense_11 (MySimple (1, 50, 1)                201       
=================================================================
Total params: 602
Trainable params: 602
Non-trainable params: 0
_________________________________________________________________
_________________________________________________________________
Layer (type)                 Output Shape              Param #   
=================================================================
operator_12 (Operator)       (1, 50, 1)                1         
_________________________________________________________________
my_dense_12 (MyDense)        (1, 50, 200)              400       
_________________________________________________________________
my_simple_dense_12 (MySimple (1, 50, 1)                201       
=================================================================
Total params: 602
Trainable params: 602
Non-trainable params: 0
_________________________________________________________________
_________________________________________________________________
Layer (type)                 Output Shape              Param #   
=================================================================
operator_13 (Operator)       (1, 50, 1)                1         
_________________________________________________________________
my_dense_13 (MyDense)        (1, 50, 200)              400       
_________________________________________________________________
my_simple_dense_13 (MySimple (1, 50, 1)                201       
=================================================================
Total params: 602
Trainable params: 602
Non-trainable params: 0
_________________________________________________________________
_________________________________________________________________
Layer (type)                 Output Shape              Param #   
=================================================================
operator_14 (Operator)       (1, 50, 1)                1         
_________________________________________________________________
my_dense_14 (MyDense)        (1, 50, 200)              400       
_________________________________________________________________
my_simple_dense_14 (MySimple (1, 50, 1)                201       
=================================================================
Total params: 602
Trainable params: 602
Non-trainable params: 0
_________________________________________________________________
_________________________________________________________________
Layer (type)                 Output Shape              Param #   
=================================================================
operator_15 (Operator)       (1, 50, 1)                1         
_________________________________________________________________
my_dense_15 (MyDense)        (1, 50, 200)              400       
_________________________________________________________________
my_simple_dense_15 (MySimple (1, 50, 1)                201       
=================================================================
Total params: 602
Trainable params: 602
Non-trainable params: 0
_________________________________________________________________
_________________________________________________________________
Layer (type)                 Output Shape              Param #   
=================================================================
operator_16 (Operator)       (1, 50, 1)                1         
_________________________________________________________________
my_dense_16 (MyDense)        (1, 50, 200)              400       
_________________________________________________________________
my_simple_dense_16 (MySimple (1, 50, 1)                201       
=================================================================
Total params: 602
Trainable params: 602
Non-trainable params: 0
_________________________________________________________________
_________________________________________________________________
Layer (type)                 Output Shape              Param #   
=================================================================
operator_17 (Operator)       (1, 50, 1)                1         
_________________________________________________________________
my_dense_17 (MyDense)        (1, 50, 200)              400       
_________________________________________________________________
my_simple_dense_17 (MySimple (1, 50, 1)                201       
=================================================================
Total params: 602
Trainable params: 602
Non-trainable params: 0
_________________________________________________________________
_________________________________________________________________
Layer (type)                 Output Shape              Param #   
=================================================================
operator_18 (Operator)       (1, 50, 1)                1         
_________________________________________________________________
my_dense_18 (MyDense)        (1, 50, 200)              400       
_________________________________________________________________
my_simple_dense_18 (MySimple (1, 50, 1)                201       
=================================================================
Total params: 602
Trainable params: 602
Non-trainable params: 0
_________________________________________________________________
_________________________________________________________________
Layer (type)                 Output Shape              Param #   
=================================================================
operator_19 (Operator)       (1, 50, 1)                1         
_________________________________________________________________
my_dense_19 (MyDense)        (1, 50, 200)              400       
_________________________________________________________________
my_simple_dense_19 (MySimple (1, 50, 1)                201       
=================================================================
Total params: 602
Trainable params: 602
Non-trainable params: 0
_________________________________________________________________
_________________________________________________________________
Layer (type)                 Output Shape              Param #   
=================================================================
operator_20 (Operator)       (1, 50, 1)                1         
_________________________________________________________________
my_dense_20 (MyDense)        (1, 50, 200)              400       
_________________________________________________________________
my_simple_dense_20 (MySimple (1, 50, 1)                201       
=================================================================
Total params: 602
Trainable params: 602
Non-trainable params: 0
_________________________________________________________________
_________________________________________________________________
Layer (type)                 Output Shape              Param #   
=================================================================
operator_21 (Operator)       (1, 50, 1)                1         
_________________________________________________________________
my_dense_21 (MyDense)        (1, 50, 200)              400       
_________________________________________________________________
my_simple_dense_21 (MySimple (1, 50, 1)                201       
=================================================================
Total params: 602
Trainable params: 602
Non-trainable params: 0
_________________________________________________________________
_________________________________________________________________
Layer (type)                 Output Shape              Param #   
=================================================================
operator_22 (Operator)       (1, 50, 1)                1         
_________________________________________________________________
my_dense_22 (MyDense)        (1, 50, 200)              400       
_________________________________________________________________
my_simple_dense_22 (MySimple (1, 50, 1)                201       
=================================================================
Total params: 602
Trainable params: 602
Non-trainable params: 0
_________________________________________________________________
_________________________________________________________________
Layer (type)                 Output Shape              Param #   
=================================================================
operator_23 (Operator)       (1, 50, 1)                1         
_________________________________________________________________
my_dense_23 (MyDense)        (1, 50, 200)              400       
_________________________________________________________________
my_simple_dense_23 (MySimple (1, 50, 1)                201       
=================================================================
Total params: 602
Trainable params: 602
Non-trainable params: 0
_________________________________________________________________
_________________________________________________________________
Layer (type)                 Output Shape              Param #   
=================================================================
operator_24 (Operator)       (1, 50, 1)                1         
_________________________________________________________________
my_dense_24 (MyDense)        (1, 50, 200)              400       
_________________________________________________________________
my_simple_dense_24 (MySimple (1, 50, 1)                201       
=================================================================
Total params: 602
Trainable params: 602
Non-trainable params: 0
_________________________________________________________________
_________________________________________________________________
Layer (type)                 Output Shape              Param #   
=================================================================
operator_25 (Operator)       (1, 50, 1)                1         
_________________________________________________________________
my_dense_25 (MyDense)        (1, 50, 200)              400       
_________________________________________________________________
my_simple_dense_25 (MySimple (1, 50, 1)                201       
=================================================================
Total params: 602
Trainable params: 602
Non-trainable params: 0
_________________________________________________________________
_________________________________________________________________
Layer (type)                 Output Shape              Param #   
=================================================================
operator_26 (Operator)       (1, 50, 1)                1         
_________________________________________________________________
my_dense_26 (MyDense)        (1, 50, 200)              400       
_________________________________________________________________
my_simple_dense_26 (MySimple (1, 50, 1)                201       
=================================================================
Total params: 602
Trainable params: 602
Non-trainable params: 0
_________________________________________________________________
_________________________________________________________________
Layer (type)                 Output Shape              Param #   
=================================================================
operator_27 (Operator)       (1, 50, 1)                1         
_________________________________________________________________
my_dense_27 (MyDense)        (1, 50, 200)              400       
_________________________________________________________________
my_simple_dense_27 (MySimple (1, 50, 1)                201       
=================================================================
Total params: 602
Trainable params: 602
Non-trainable params: 0
_________________________________________________________________
_________________________________________________________________
Layer (type)                 Output Shape              Param #   
=================================================================
operator_28 (Operator)       (1, 50, 1)                1         
_________________________________________________________________
my_dense_28 (MyDense)        (1, 50, 200)              400       
_________________________________________________________________
my_simple_dense_28 (MySimple (1, 50, 1)                201       
=================================================================
Total params: 602
Trainable params: 602
Non-trainable params: 0
_________________________________________________________________
_________________________________________________________________
Layer (type)                 Output Shape              Param #   
=================================================================
operator_29 (Operator)       (1, 50, 1)                1         
_________________________________________________________________
my_dense_29 (MyDense)        (1, 50, 200)              400       
_________________________________________________________________
my_simple_dense_29 (MySimple (1, 50, 1)                201       
=================================================================
Total params: 602
Trainable params: 602
Non-trainable params: 0
_________________________________________________________________
_________________________________________________________________
Layer (type)                 Output Shape              Param #   
=================================================================
operator_30 (Operator)       (1, 50, 1)                1         
_________________________________________________________________
my_dense_30 (MyDense)        (1, 50, 200)              400       
_________________________________________________________________
my_simple_dense_30 (MySimple (1, 50, 1)                201       
=================================================================
Total params: 602
Trainable params: 602
Non-trainable params: 0
_________________________________________________________________
_________________________________________________________________
Layer (type)                 Output Shape              Param #   
=================================================================
operator_31 (Operator)       (1, 50, 1)                1         
_________________________________________________________________
my_dense_31 (MyDense)        (1, 50, 200)              400       
_________________________________________________________________
my_simple_dense_31 (MySimple (1, 50, 1)                201       
=================================================================
Total params: 602
Trainable params: 602
Non-trainable params: 0
_________________________________________________________________
_________________________________________________________________
Layer (type)                 Output Shape              Param #   
=================================================================
operator_32 (Operator)       (1, 50, 1)                1         
_________________________________________________________________
my_dense_32 (MyDense)        (1, 50, 200)              400       
_________________________________________________________________
my_simple_dense_32 (MySimple (1, 50, 1)                201       
=================================================================
Total params: 602
Trainable params: 602
Non-trainable params: 0
_________________________________________________________________
_________________________________________________________________
Layer (type)                 Output Shape              Param #   
=================================================================
operator_33 (Operator)       (1, 50, 1)                1         
_________________________________________________________________
my_dense_33 (MyDense)        (1, 50, 200)              400       
_________________________________________________________________
my_simple_dense_33 (MySimple (1, 50, 1)                201       
=================================================================
Total params: 602
Trainable params: 602
Non-trainable params: 0
_________________________________________________________________
_________________________________________________________________
Layer (type)                 Output Shape              Param #   
=================================================================
operator_34 (Operator)       (1, 50, 1)                1         
_________________________________________________________________
my_dense_34 (MyDense)        (1, 50, 200)              400       
_________________________________________________________________
my_simple_dense_34 (MySimple (1, 50, 1)                201       
=================================================================
Total params: 602
Trainable params: 602
Non-trainable params: 0
_________________________________________________________________
_________________________________________________________________
Layer (type)                 Output Shape              Param #   
=================================================================
operator_35 (Operator)       (1, 50, 1)                1         
_________________________________________________________________
my_dense_35 (MyDense)        (1, 50, 200)              400       
_________________________________________________________________
my_simple_dense_35 (MySimple (1, 50, 1)                201       
=================================================================
Total params: 602
Trainable params: 602
Non-trainable params: 0
_________________________________________________________________
_________________________________________________________________
Layer (type)                 Output Shape              Param #   
=================================================================
operator_36 (Operator)       (1, 50, 1)                1         
_________________________________________________________________
my_dense_36 (MyDense)        (1, 50, 200)              400       
_________________________________________________________________
my_simple_dense_36 (MySimple (1, 50, 1)                201       
=================================================================
Total params: 602
Trainable params: 602
Non-trainable params: 0
_________________________________________________________________
_________________________________________________________________
Layer (type)                 Output Shape              Param #   
=================================================================
operator_37 (Operator)       (1, 50, 1)                1         
_________________________________________________________________
my_dense_37 (MyDense)        (1, 50, 200)              400       
_________________________________________________________________
my_simple_dense_37 (MySimple (1, 50, 1)                201       
=================================================================
Total params: 602
Trainable params: 602
Non-trainable params: 0
_________________________________________________________________
_________________________________________________________________
Layer (type)                 Output Shape              Param #   
=================================================================
operator_38 (Operator)       (1, 50, 1)                1         
_________________________________________________________________
my_dense_38 (MyDense)        (1, 50, 200)              400       
_________________________________________________________________
my_simple_dense_38 (MySimple (1, 50, 1)                201       
=================================================================
Total params: 602
Trainable params: 602
Non-trainable params: 0
_________________________________________________________________
_________________________________________________________________
Layer (type)                 Output Shape              Param #   
=================================================================
operator_39 (Operator)       (1, 50, 1)                1         
_________________________________________________________________
my_dense_39 (MyDense)        (1, 50, 200)              400       
_________________________________________________________________
my_simple_dense_39 (MySimple (1, 50, 1)                201       
=================================================================
Total params: 602
Trainable params: 602
Non-trainable params: 0
_________________________________________________________________
_________________________________________________________________
Layer (type)                 Output Shape              Param #   
=================================================================
operator_40 (Operator)       (1, 50, 1)                1         
_________________________________________________________________
my_dense_40 (MyDense)        (1, 50, 200)              400       
_________________________________________________________________
my_simple_dense_40 (MySimple (1, 50, 1)                201       
=================================================================
Total params: 602
Trainable params: 602
Non-trainable params: 0
_________________________________________________________________
_________________________________________________________________
Layer (type)                 Output Shape              Param #   
=================================================================
operator_41 (Operator)       (1, 50, 1)                1         
_________________________________________________________________
my_dense_41 (MyDense)        (1, 50, 200)              400       
_________________________________________________________________
my_simple_dense_41 (MySimple (1, 50, 1)                201       
=================================================================
Total params: 602
Trainable params: 602
Non-trainable params: 0
_________________________________________________________________
_________________________________________________________________
Layer (type)                 Output Shape              Param #   
=================================================================
operator_42 (Operator)       (1, 50, 1)                1         
_________________________________________________________________
my_dense_42 (MyDense)        (1, 50, 200)              400       
_________________________________________________________________
my_simple_dense_42 (MySimple (1, 50, 1)                201       
=================================================================
Total params: 602
Trainable params: 602
Non-trainable params: 0
_________________________________________________________________
_________________________________________________________________
Layer (type)                 Output Shape              Param #   
=================================================================
operator_43 (Operator)       (1, 50, 1)                1         
_________________________________________________________________
my_dense_43 (MyDense)        (1, 50, 200)              400       
_________________________________________________________________
my_simple_dense_43 (MySimple (1, 50, 1)                201       
=================================================================
Total params: 602
Trainable params: 602
Non-trainable params: 0
_________________________________________________________________
_________________________________________________________________
Layer (type)                 Output Shape              Param #   
=================================================================
operator_44 (Operator)       (1, 50, 1)                1         
_________________________________________________________________
my_dense_44 (MyDense)        (1, 50, 200)              400       
_________________________________________________________________
my_simple_dense_44 (MySimple (1, 50, 1)                201       
=================================================================
Total params: 602
Trainable params: 602
Non-trainable params: 0
_________________________________________________________________
_________________________________________________________________
Layer (type)                 Output Shape              Param #   
=================================================================
operator_45 (Operator)       (1, 50, 1)                1         
_________________________________________________________________
my_dense_45 (MyDense)        (1, 50, 200)              400       
_________________________________________________________________
my_simple_dense_45 (MySimple (1, 50, 1)                201       
=================================================================
Total params: 602
Trainable params: 602
Non-trainable params: 0
_________________________________________________________________
_________________________________________________________________
Layer (type)                 Output Shape              Param #   
=================================================================
operator_46 (Operator)       (1, 50, 1)                1         
_________________________________________________________________
my_dense_46 (MyDense)        (1, 50, 200)              400       
_________________________________________________________________
my_simple_dense_46 (MySimple (1, 50, 1)                201       
=================================================================
Total params: 602
Trainable params: 602
Non-trainable params: 0
_________________________________________________________________
_________________________________________________________________
Layer (type)                 Output Shape              Param #   
=================================================================
operator_47 (Operator)       (1, 50, 1)                1         
_________________________________________________________________
my_dense_47 (MyDense)        (1, 50, 200)              400       
_________________________________________________________________
my_simple_dense_47 (MySimple (1, 50, 1)                201       
=================================================================
Total params: 602
Trainable params: 602
Non-trainable params: 0
_________________________________________________________________
_________________________________________________________________
Layer (type)                 Output Shape              Param #   
=================================================================
operator_48 (Operator)       (1, 50, 1)                1         
_________________________________________________________________
my_dense_48 (MyDense)        (1, 50, 200)              400       
_________________________________________________________________
my_simple_dense_48 (MySimple (1, 50, 1)                201       
=================================================================
Total params: 602
Trainable params: 602
Non-trainable params: 0
_________________________________________________________________
_________________________________________________________________
Layer (type)                 Output Shape              Param #   
=================================================================
operator_49 (Operator)       (1, 50, 1)                1         
_________________________________________________________________
my_dense_49 (MyDense)        (1, 50, 200)              400       
_________________________________________________________________
my_simple_dense_49 (MySimple (1, 50, 1)                201       
=================================================================
Total params: 602
Trainable params: 602
Non-trainable params: 0
_________________________________________________________________
_________________________________________________________________
Layer (type)                 Output Shape              Param #   
=================================================================
operator_50 (Operator)       (1, 50, 1)                1         
_________________________________________________________________
my_dense_50 (MyDense)        (1, 50, 200)              400       
_________________________________________________________________
my_simple_dense_50 (MySimple (1, 50, 1)                201       
=================================================================
Total params: 602
Trainable params: 602
Non-trainable params: 0
_________________________________________________________________
_________________________________________________________________
Layer (type)                 Output Shape              Param #   
=================================================================
operator_51 (Operator)       (1, 50, 1)                1         
_________________________________________________________________
my_dense_51 (MyDense)        (1, 50, 200)              400       
_________________________________________________________________
my_simple_dense_51 (MySimple (1, 50, 1)                201       
=================================================================
Total params: 602
Trainable params: 602
Non-trainable params: 0
_________________________________________________________________
_________________________________________________________________
Layer (type)                 Output Shape              Param #   
=================================================================
operator_52 (Operator)       (1, 50, 1)                1         
_________________________________________________________________
my_dense_52 (MyDense)        (1, 50, 200)              400       
_________________________________________________________________
my_simple_dense_52 (MySimple (1, 50, 1)                201       
=================================================================
Total params: 602
Trainable params: 602
Non-trainable params: 0
_________________________________________________________________
_________________________________________________________________
Layer (type)                 Output Shape              Param #   
=================================================================
operator_53 (Operator)       (1, 50, 1)                1         
_________________________________________________________________
my_dense_53 (MyDense)        (1, 50, 200)              400       
_________________________________________________________________
my_simple_dense_53 (MySimple (1, 50, 1)                201       
=================================================================
Total params: 602
Trainable params: 602
Non-trainable params: 0
_________________________________________________________________
_________________________________________________________________
Layer (type)                 Output Shape              Param #   
=================================================================
operator_54 (Operator)       (1, 50, 1)                1         
_________________________________________________________________
my_dense_54 (MyDense)        (1, 50, 200)              400       
_________________________________________________________________
my_simple_dense_54 (MySimple (1, 50, 1)                201       
=================================================================
Total params: 602
Trainable params: 602
Non-trainable params: 0
_________________________________________________________________
_________________________________________________________________
Layer (type)                 Output Shape              Param #   
=================================================================
operator_55 (Operator)       (1, 50, 1)                1         
_________________________________________________________________
my_dense_55 (MyDense)        (1, 50, 200)              400       
_________________________________________________________________
my_simple_dense_55 (MySimple (1, 50, 1)                201       
=================================================================
Total params: 602
Trainable params: 602
Non-trainable params: 0
_________________________________________________________________
_________________________________________________________________
Layer (type)                 Output Shape              Param #   
=================================================================
operator_56 (Operator)       (1, 50, 1)                1         
_________________________________________________________________
my_dense_56 (MyDense)        (1, 50, 200)              400       
_________________________________________________________________
my_simple_dense_56 (MySimple (1, 50, 1)                201       
=================================================================
Total params: 602
Trainable params: 602
Non-trainable params: 0
_________________________________________________________________
_________________________________________________________________
Layer (type)                 Output Shape              Param #   
=================================================================
operator_57 (Operator)       (1, 50, 1)                1         
_________________________________________________________________
my_dense_57 (MyDense)        (1, 50, 200)              400       
_________________________________________________________________
my_simple_dense_57 (MySimple (1, 50, 1)                201       
=================================================================
Total params: 602
Trainable params: 602
Non-trainable params: 0
_________________________________________________________________
_________________________________________________________________
Layer (type)                 Output Shape              Param #   
=================================================================
operator_58 (Operator)       (1, 50, 1)                1         
_________________________________________________________________
my_dense_58 (MyDense)        (1, 50, 200)              400       
_________________________________________________________________
my_simple_dense_58 (MySimple (1, 50, 1)                201       
=================================================================
Total params: 602
Trainable params: 602
Non-trainable params: 0
_________________________________________________________________
_________________________________________________________________
Layer (type)                 Output Shape              Param #   
=================================================================
operator_59 (Operator)       (1, 50, 1)                1         
_________________________________________________________________
my_dense_59 (MyDense)        (1, 50, 200)              400       
_________________________________________________________________
my_simple_dense_59 (MySimple (1, 50, 1)                201       
=================================================================
Total params: 602
Trainable params: 602
Non-trainable params: 0
_________________________________________________________________
_________________________________________________________________
Layer (type)                 Output Shape              Param #   
=================================================================
operator_60 (Operator)       (1, 50, 1)                1         
_________________________________________________________________
my_dense_60 (MyDense)        (1, 50, 200)              400       
_________________________________________________________________
my_simple_dense_60 (MySimple (1, 50, 1)                201       
=================================================================
Total params: 602
Trainable params: 602
Non-trainable params: 0
_________________________________________________________________
_________________________________________________________________
Layer (type)                 Output Shape              Param #   
=================================================================
operator_61 (Operator)       (1, 50, 1)                1         
_________________________________________________________________
my_dense_61 (MyDense)        (1, 50, 200)              400       
_________________________________________________________________
my_simple_dense_61 (MySimple (1, 50, 1)                201       
=================================================================
Total params: 602
Trainable params: 602
Non-trainable params: 0
_________________________________________________________________
_________________________________________________________________
Layer (type)                 Output Shape              Param #   
=================================================================
operator_62 (Operator)       (1, 50, 1)                1         
_________________________________________________________________
my_dense_62 (MyDense)        (1, 50, 200)              400       
_________________________________________________________________
my_simple_dense_62 (MySimple (1, 50, 1)                201       
=================================================================
Total params: 602
Trainable params: 602
Non-trainable params: 0
_________________________________________________________________
_________________________________________________________________
Layer (type)                 Output Shape              Param #   
=================================================================
operator_63 (Operator)       (1, 50, 1)                1         
_________________________________________________________________
my_dense_63 (MyDense)        (1, 50, 200)              400       
_________________________________________________________________
my_simple_dense_63 (MySimple (1, 50, 1)                201       
=================================================================
Total params: 602
Trainable params: 602
Non-trainable params: 0
_________________________________________________________________
_________________________________________________________________
Layer (type)                 Output Shape              Param #   
=================================================================
operator_64 (Operator)       (1, 50, 1)                1         
_________________________________________________________________
my_dense_64 (MyDense)        (1, 50, 200)              400       
_________________________________________________________________
my_simple_dense_64 (MySimple (1, 50, 1)                201       
=================================================================
Total params: 602
Trainable params: 602
Non-trainable params: 0
_________________________________________________________________
_________________________________________________________________
Layer (type)                 Output Shape              Param #   
=================================================================
operator_65 (Operator)       (1, 50, 1)                1         
_________________________________________________________________
my_dense_65 (MyDense)        (1, 50, 200)              400       
_________________________________________________________________
my_simple_dense_65 (MySimple (1, 50, 1)                201       
=================================================================
Total params: 602
Trainable params: 602
Non-trainable params: 0
_________________________________________________________________
_________________________________________________________________
Layer (type)                 Output Shape              Param #   
=================================================================
operator_66 (Operator)       (1, 50, 1)                1         
_________________________________________________________________
my_dense_66 (MyDense)        (1, 50, 200)              400       
_________________________________________________________________
my_simple_dense_66 (MySimple (1, 50, 1)                201       
=================================================================
Total params: 602
Trainable params: 602
Non-trainable params: 0
_________________________________________________________________
_________________________________________________________________
Layer (type)                 Output Shape              Param #   
=================================================================
operator_67 (Operator)       (1, 50, 1)                1         
_________________________________________________________________
my_dense_67 (MyDense)        (1, 50, 200)              400       
_________________________________________________________________
my_simple_dense_67 (MySimple (1, 50, 1)                201       
=================================================================
Total params: 602
Trainable params: 602
Non-trainable params: 0
_________________________________________________________________
_________________________________________________________________
Layer (type)                 Output Shape              Param #   
=================================================================
operator_68 (Operator)       (1, 50, 1)                1         
_________________________________________________________________
my_dense_68 (MyDense)        (1, 50, 200)              400       
_________________________________________________________________
my_simple_dense_68 (MySimple (1, 50, 1)                201       
=================================================================
Total params: 602
Trainable params: 602
Non-trainable params: 0
_________________________________________________________________
_________________________________________________________________
Layer (type)                 Output Shape              Param #   
=================================================================
operator_69 (Operator)       (1, 50, 1)                1         
_________________________________________________________________
my_dense_69 (MyDense)        (1, 50, 200)              400       
_________________________________________________________________
my_simple_dense_69 (MySimple (1, 50, 1)                201       
=================================================================
Total params: 602
Trainable params: 602
Non-trainable params: 0
_________________________________________________________________
_________________________________________________________________
Layer (type)                 Output Shape              Param #   
=================================================================
operator_70 (Operator)       (1, 50, 1)                1         
_________________________________________________________________
my_dense_70 (MyDense)        (1, 50, 200)              400       
_________________________________________________________________
my_simple_dense_70 (MySimple (1, 50, 1)                201       
=================================================================
Total params: 602
Trainable params: 602
Non-trainable params: 0
_________________________________________________________________
_________________________________________________________________
Layer (type)                 Output Shape              Param #   
=================================================================
operator_71 (Operator)       (1, 50, 1)                1         
_________________________________________________________________
my_dense_71 (MyDense)        (1, 50, 200)              400       
_________________________________________________________________
my_simple_dense_71 (MySimple (1, 50, 1)                201       
=================================================================
Total params: 602
Trainable params: 602
Non-trainable params: 0
_________________________________________________________________
_________________________________________________________________
Layer (type)                 Output Shape              Param #   
=================================================================
operator_72 (Operator)       (1, 50, 1)                1         
_________________________________________________________________
my_dense_72 (MyDense)        (1, 50, 200)              400       
_________________________________________________________________
my_simple_dense_72 (MySimple (1, 50, 1)                201       
=================================================================
Total params: 602
Trainable params: 602
Non-trainable params: 0
_________________________________________________________________
_________________________________________________________________
Layer (type)                 Output Shape              Param #   
=================================================================
operator_73 (Operator)       (1, 50, 1)                1         
_________________________________________________________________
my_dense_73 (MyDense)        (1, 50, 200)              400       
_________________________________________________________________
my_simple_dense_73 (MySimple (1, 50, 1)                201       
=================================================================
Total params: 602
Trainable params: 602
Non-trainable params: 0
_________________________________________________________________
_________________________________________________________________
Layer (type)                 Output Shape              Param #   
=================================================================
operator_74 (Operator)       (1, 50, 1)                1         
_________________________________________________________________
my_dense_74 (MyDense)        (1, 50, 200)              400       
_________________________________________________________________
my_simple_dense_74 (MySimple (1, 50, 1)                201       
=================================================================
Total params: 602
Trainable params: 602
Non-trainable params: 0
_________________________________________________________________
_________________________________________________________________
Layer (type)                 Output Shape              Param #   
=================================================================
operator_75 (Operator)       (1, 50, 1)                1         
_________________________________________________________________
my_dense_75 (MyDense)        (1, 50, 200)              400       
_________________________________________________________________
my_simple_dense_75 (MySimple (1, 50, 1)                201       
=================================================================
Total params: 602
Trainable params: 602
Non-trainable params: 0
_________________________________________________________________
_________________________________________________________________
Layer (type)                 Output Shape              Param #   
=================================================================
operator_76 (Operator)       (1, 50, 1)                1         
_________________________________________________________________
my_dense_76 (MyDense)        (1, 50, 200)              400       
_________________________________________________________________
my_simple_dense_76 (MySimple (1, 50, 1)                201       
=================================================================
Total params: 602
Trainable params: 602
Non-trainable params: 0
_________________________________________________________________
_________________________________________________________________
Layer (type)                 Output Shape              Param #   
=================================================================
operator_77 (Operator)       (1, 50, 1)                1         
_________________________________________________________________
my_dense_77 (MyDense)        (1, 50, 200)              400       
_________________________________________________________________
my_simple_dense_77 (MySimple (1, 50, 1)                201       
=================================================================
Total params: 602
Trainable params: 602
Non-trainable params: 0
_________________________________________________________________
_________________________________________________________________
Layer (type)                 Output Shape              Param #   
=================================================================
operator_78 (Operator)       (1, 50, 1)                1         
_________________________________________________________________
my_dense_78 (MyDense)        (1, 50, 200)              400       
_________________________________________________________________
my_simple_dense_78 (MySimple (1, 50, 1)                201       
=================================================================
Total params: 602
Trainable params: 602
Non-trainable params: 0
_________________________________________________________________
_________________________________________________________________
Layer (type)                 Output Shape              Param #   
=================================================================
operator_79 (Operator)       (1, 50, 1)                1         
_________________________________________________________________
my_dense_79 (MyDense)        (1, 50, 200)              400       
_________________________________________________________________
my_simple_dense_79 (MySimple (1, 50, 1)                201       
=================================================================
Total params: 602
Trainable params: 602
Non-trainable params: 0
_________________________________________________________________
_________________________________________________________________
Layer (type)                 Output Shape              Param #   
=================================================================
operator_80 (Operator)       (1, 50, 1)                1         
_________________________________________________________________
my_dense_80 (MyDense)        (1, 50, 200)              400       
_________________________________________________________________
my_simple_dense_80 (MySimple (1, 50, 1)                201       
=================================================================
Total params: 602
Trainable params: 602
Non-trainable params: 0
_________________________________________________________________
_________________________________________________________________
Layer (type)                 Output Shape              Param #   
=================================================================
operator_81 (Operator)       (1, 50, 1)                1         
_________________________________________________________________
my_dense_81 (MyDense)        (1, 50, 200)              400       
_________________________________________________________________
my_simple_dense_81 (MySimple (1, 50, 1)                201       
=================================================================
Total params: 602
Trainable params: 602
Non-trainable params: 0
_________________________________________________________________
_________________________________________________________________
Layer (type)                 Output Shape              Param #   
=================================================================
operator_82 (Operator)       (1, 50, 1)                1         
_________________________________________________________________
my_dense_82 (MyDense)        (1, 50, 200)              400       
_________________________________________________________________
my_simple_dense_82 (MySimple (1, 50, 1)                201       
=================================================================
Total params: 602
Trainable params: 602
Non-trainable params: 0
_________________________________________________________________
_________________________________________________________________
Layer (type)                 Output Shape              Param #   
=================================================================
operator_83 (Operator)       (1, 50, 1)                1         
_________________________________________________________________
my_dense_83 (MyDense)        (1, 50, 200)              400       
_________________________________________________________________
my_simple_dense_83 (MySimple (1, 50, 1)                201       
=================================================================
Total params: 602
Trainable params: 602
Non-trainable params: 0
_________________________________________________________________
_________________________________________________________________
Layer (type)                 Output Shape              Param #   
=================================================================
operator_84 (Operator)       (1, 50, 1)                1         
_________________________________________________________________
my_dense_84 (MyDense)        (1, 50, 200)              400       
_________________________________________________________________
my_simple_dense_84 (MySimple (1, 50, 1)                201       
=================================================================
Total params: 602
Trainable params: 602
Non-trainable params: 0
_________________________________________________________________
_________________________________________________________________
Layer (type)                 Output Shape              Param #   
=================================================================
operator_85 (Operator)       (1, 50, 1)                1         
_________________________________________________________________
my_dense_85 (MyDense)        (1, 50, 200)              400       
_________________________________________________________________
my_simple_dense_85 (MySimple (1, 50, 1)                201       
=================================================================
Total params: 602
Trainable params: 602
Non-trainable params: 0
_________________________________________________________________
_________________________________________________________________
Layer (type)                 Output Shape              Param #   
=================================================================
operator_86 (Operator)       (1, 50, 1)                1         
_________________________________________________________________
my_dense_86 (MyDense)        (1, 50, 200)              400       
_________________________________________________________________
my_simple_dense_86 (MySimple (1, 50, 1)                201       
=================================================================
Total params: 602
Trainable params: 602
Non-trainable params: 0
_________________________________________________________________
_________________________________________________________________
Layer (type)                 Output Shape              Param #   
=================================================================
operator_87 (Operator)       (1, 50, 1)                1         
_________________________________________________________________
my_dense_87 (MyDense)        (1, 50, 200)              400       
_________________________________________________________________
my_simple_dense_87 (MySimple (1, 50, 1)                201       
=================================================================
Total params: 602
Trainable params: 602
Non-trainable params: 0
_________________________________________________________________
_________________________________________________________________
Layer (type)                 Output Shape              Param #   
=================================================================
operator_88 (Operator)       (1, 50, 1)                1         
_________________________________________________________________
my_dense_88 (MyDense)        (1, 50, 200)              400       
_________________________________________________________________
my_simple_dense_88 (MySimple (1, 50, 1)                201       
=================================================================
Total params: 602
Trainable params: 602
Non-trainable params: 0
_________________________________________________________________
_________________________________________________________________
Layer (type)                 Output Shape              Param #   
=================================================================
operator_89 (Operator)       (1, 50, 1)                1         
_________________________________________________________________
my_dense_89 (MyDense)        (1, 50, 200)              400       
_________________________________________________________________
my_simple_dense_89 (MySimple (1, 50, 1)                201       
=================================================================
Total params: 602
Trainable params: 602
Non-trainable params: 0
_________________________________________________________________
_________________________________________________________________
Layer (type)                 Output Shape              Param #   
=================================================================
operator_90 (Operator)       (1, 50, 1)                1         
_________________________________________________________________
my_dense_90 (MyDense)        (1, 50, 200)              400       
_________________________________________________________________
my_simple_dense_90 (MySimple (1, 50, 1)                201       
=================================================================
Total params: 602
Trainable params: 602
Non-trainable params: 0
_________________________________________________________________
_________________________________________________________________
Layer (type)                 Output Shape              Param #   
=================================================================
operator_91 (Operator)       (1, 50, 1)                1         
_________________________________________________________________
my_dense_91 (MyDense)        (1, 50, 200)              400       
_________________________________________________________________
my_simple_dense_91 (MySimple (1, 50, 1)                201       
=================================================================
Total params: 602
Trainable params: 602
Non-trainable params: 0
_________________________________________________________________
_________________________________________________________________
Layer (type)                 Output Shape              Param #   
=================================================================
operator_92 (Operator)       (1, 50, 1)                1         
_________________________________________________________________
my_dense_92 (MyDense)        (1, 50, 200)              400       
_________________________________________________________________
my_simple_dense_92 (MySimple (1, 50, 1)                201       
=================================================================
Total params: 602
Trainable params: 602
Non-trainable params: 0
_________________________________________________________________
_________________________________________________________________
Layer (type)                 Output Shape              Param #   
=================================================================
operator_93 (Operator)       (1, 50, 1)                1         
_________________________________________________________________
my_dense_93 (MyDense)        (1, 50, 200)              400       
_________________________________________________________________
my_simple_dense_93 (MySimple (1, 50, 1)                201       
=================================================================
Total params: 602
Trainable params: 602
Non-trainable params: 0
_________________________________________________________________
_________________________________________________________________
Layer (type)                 Output Shape              Param #   
=================================================================
operator_94 (Operator)       (1, 50, 1)                1         
_________________________________________________________________
my_dense_94 (MyDense)        (1, 50, 200)              400       
_________________________________________________________________
my_simple_dense_94 (MySimple (1, 50, 1)                201       
=================================================================
Total params: 602
Trainable params: 602
Non-trainable params: 0
_________________________________________________________________
_________________________________________________________________
Layer (type)                 Output Shape              Param #   
=================================================================
operator_95 (Operator)       (1, 50, 1)                1         
_________________________________________________________________
my_dense_95 (MyDense)        (1, 50, 200)              400       
_________________________________________________________________
my_simple_dense_95 (MySimple (1, 50, 1)                201       
=================================================================
Total params: 602
Trainable params: 602
Non-trainable params: 0
_________________________________________________________________
_________________________________________________________________
Layer (type)                 Output Shape              Param #   
=================================================================
operator_96 (Operator)       (1, 50, 1)                1         
_________________________________________________________________
my_dense_96 (MyDense)        (1, 50, 200)              400       
_________________________________________________________________
my_simple_dense_96 (MySimple (1, 50, 1)                201       
=================================================================
Total params: 602
Trainable params: 602
Non-trainable params: 0
_________________________________________________________________
_________________________________________________________________
Layer (type)                 Output Shape              Param #   
=================================================================
operator_97 (Operator)       (1, 50, 1)                1         
_________________________________________________________________
my_dense_97 (MyDense)        (1, 50, 200)              400       
_________________________________________________________________
my_simple_dense_97 (MySimple (1, 50, 1)                201       
=================================================================
Total params: 602
Trainable params: 602
Non-trainable params: 0
_________________________________________________________________
_________________________________________________________________
Layer (type)                 Output Shape              Param #   
=================================================================
operator_98 (Operator)       (1, 50, 1)                1         
_________________________________________________________________
my_dense_98 (MyDense)        (1, 50, 200)              400       
_________________________________________________________________
my_simple_dense_98 (MySimple (1, 50, 1)                201       
=================================================================
Total params: 602
Trainable params: 602
Non-trainable params: 0
_________________________________________________________________
_________________________________________________________________
Layer (type)                 Output Shape              Param #   
=================================================================
operator_99 (Operator)       (1, 50, 1)                1         
_________________________________________________________________
my_dense_99 (MyDense)        (1, 50, 200)              400       
_________________________________________________________________
my_simple_dense_99 (MySimple (1, 50, 1)                201       
=================================================================
Total params: 602
Trainable params: 602
Non-trainable params: 0
_________________________________________________________________
_________________________________________________________________
Layer (type)                 Output Shape              Param #   
=================================================================
operator_100 (Operator)      (1, 50, 1)                1         
_________________________________________________________________
my_dense_100 (MyDense)       (1, 50, 200)              400       
_________________________________________________________________
my_simple_dense_100 (MySimpl (1, 50, 1)                201       
=================================================================
Total params: 602
Trainable params: 602
Non-trainable params: 0
_________________________________________________________________
_________________________________________________________________
Layer (type)                 Output Shape              Param #   
=================================================================
operator_101 (Operator)      (1, 50, 1)                1         
_________________________________________________________________
my_dense_101 (MyDense)       (1, 50, 200)              400       
_________________________________________________________________
my_simple_dense_101 (MySimpl (1, 50, 1)                201       
=================================================================
Total params: 602
Trainable params: 602
Non-trainable params: 0
_________________________________________________________________
_________________________________________________________________
Layer (type)                 Output Shape              Param #   
=================================================================
operator_102 (Operator)      (1, 50, 1)                1         
_________________________________________________________________
my_dense_102 (MyDense)       (1, 50, 200)              400       
_________________________________________________________________
my_simple_dense_102 (MySimpl (1, 50, 1)                201       
=================================================================
Total params: 602
Trainable params: 602
Non-trainable params: 0
_________________________________________________________________
_________________________________________________________________
Layer (type)                 Output Shape              Param #   
=================================================================
operator_103 (Operator)      (1, 50, 1)                1         
_________________________________________________________________
my_dense_103 (MyDense)       (1, 50, 200)              400       
_________________________________________________________________
my_simple_dense_103 (MySimpl (1, 50, 1)                201       
=================================================================
Total params: 602
Trainable params: 602
Non-trainable params: 0
_________________________________________________________________
_________________________________________________________________
Layer (type)                 Output Shape              Param #   
=================================================================
operator_104 (Operator)      (1, 50, 1)                1         
_________________________________________________________________
my_dense_104 (MyDense)       (1, 50, 200)              400       
_________________________________________________________________
my_simple_dense_104 (MySimpl (1, 50, 1)                201       
=================================================================
Total params: 602
Trainable params: 602
Non-trainable params: 0
_________________________________________________________________
_________________________________________________________________
Layer (type)                 Output Shape              Param #   
=================================================================
operator_105 (Operator)      (1, 50, 1)                1         
_________________________________________________________________
my_dense_105 (MyDense)       (1, 50, 200)              400       
_________________________________________________________________
my_simple_dense_105 (MySimpl (1, 50, 1)                201       
=================================================================
Total params: 602
Trainable params: 602
Non-trainable params: 0
_________________________________________________________________
_________________________________________________________________
Layer (type)                 Output Shape              Param #   
=================================================================
operator_106 (Operator)      (1, 50, 1)                1         
_________________________________________________________________
my_dense_106 (MyDense)       (1, 50, 200)              400       
_________________________________________________________________
my_simple_dense_106 (MySimpl (1, 50, 1)                201       
=================================================================
Total params: 602
Trainable params: 602
Non-trainable params: 0
_________________________________________________________________
_________________________________________________________________
Layer (type)                 Output Shape              Param #   
=================================================================
operator_107 (Operator)      (1, 50, 1)                1         
_________________________________________________________________
my_dense_107 (MyDense)       (1, 50, 200)              400       
_________________________________________________________________
my_simple_dense_107 (MySimpl (1, 50, 1)                201       
=================================================================
Total params: 602
Trainable params: 602
Non-trainable params: 0
_________________________________________________________________
_________________________________________________________________
Layer (type)                 Output Shape              Param #   
=================================================================
operator_108 (Operator)      (1, 50, 1)                1         
_________________________________________________________________
my_dense_108 (MyDense)       (1, 50, 200)              400       
_________________________________________________________________
my_simple_dense_108 (MySimpl (1, 50, 1)                201       
=================================================================
Total params: 602
Trainable params: 602
Non-trainable params: 0
_________________________________________________________________
_________________________________________________________________
Layer (type)                 Output Shape              Param #   
=================================================================
operator_109 (Operator)      (1, 50, 1)                1         
_________________________________________________________________
my_dense_109 (MyDense)       (1, 50, 200)              400       
_________________________________________________________________
my_simple_dense_109 (MySimpl (1, 50, 1)                201       
=================================================================
Total params: 602
Trainable params: 602
Non-trainable params: 0
_________________________________________________________________
_________________________________________________________________
Layer (type)                 Output Shape              Param #   
=================================================================
operator_110 (Operator)      (1, 50, 1)                1         
_________________________________________________________________
my_dense_110 (MyDense)       (1, 50, 200)              400       
_________________________________________________________________
my_simple_dense_110 (MySimpl (1, 50, 1)                201       
=================================================================
Total params: 602
Trainable params: 602
Non-trainable params: 0
_________________________________________________________________
_________________________________________________________________
Layer (type)                 Output Shape              Param #   
=================================================================
operator_111 (Operator)      (1, 50, 1)                1         
_________________________________________________________________
my_dense_111 (MyDense)       (1, 50, 200)              400       
_________________________________________________________________
my_simple_dense_111 (MySimpl (1, 50, 1)                201       
=================================================================
Total params: 602
Trainable params: 602
Non-trainable params: 0
_________________________________________________________________
_________________________________________________________________
Layer (type)                 Output Shape              Param #   
=================================================================
operator_112 (Operator)      (1, 50, 1)                1         
_________________________________________________________________
my_dense_112 (MyDense)       (1, 50, 200)              400       
_________________________________________________________________
my_simple_dense_112 (MySimpl (1, 50, 1)                201       
=================================================================
Total params: 602
Trainable params: 602
Non-trainable params: 0
_________________________________________________________________
_________________________________________________________________
Layer (type)                 Output Shape              Param #   
=================================================================
operator_113 (Operator)      (1, 50, 1)                1         
_________________________________________________________________
my_dense_113 (MyDense)       (1, 50, 200)              400       
_________________________________________________________________
my_simple_dense_113 (MySimpl (1, 50, 1)                201       
=================================================================
Total params: 602
Trainable params: 602
Non-trainable params: 0
_________________________________________________________________
_________________________________________________________________
Layer (type)                 Output Shape              Param #   
=================================================================
operator_114 (Operator)      (1, 50, 1)                1         
_________________________________________________________________
my_dense_114 (MyDense)       (1, 50, 200)              400       
_________________________________________________________________
my_simple_dense_114 (MySimpl (1, 50, 1)                201       
=================================================================
Total params: 602
Trainable params: 602
Non-trainable params: 0
_________________________________________________________________
_________________________________________________________________
Layer (type)                 Output Shape              Param #   
=================================================================
operator_115 (Operator)      (1, 50, 1)                1         
_________________________________________________________________
my_dense_115 (MyDense)       (1, 50, 200)              400       
_________________________________________________________________
my_simple_dense_115 (MySimpl (1, 50, 1)                201       
=================================================================
Total params: 602
Trainable params: 602
Non-trainable params: 0
_________________________________________________________________
_________________________________________________________________
Layer (type)                 Output Shape              Param #   
=================================================================
operator_116 (Operator)      (1, 50, 1)                1         
_________________________________________________________________
my_dense_116 (MyDense)       (1, 50, 200)              400       
_________________________________________________________________
my_simple_dense_116 (MySimpl (1, 50, 1)                201       
=================================================================
Total params: 602
Trainable params: 602
Non-trainable params: 0
_________________________________________________________________
_________________________________________________________________
Layer (type)                 Output Shape              Param #   
=================================================================
operator_117 (Operator)      (1, 50, 1)                1         
_________________________________________________________________
my_dense_117 (MyDense)       (1, 50, 200)              400       
_________________________________________________________________
my_simple_dense_117 (MySimpl (1, 50, 1)                201       
=================================================================
Total params: 602
Trainable params: 602
Non-trainable params: 0
_________________________________________________________________
_________________________________________________________________
Layer (type)                 Output Shape              Param #   
=================================================================
operator_118 (Operator)      (1, 50, 1)                1         
_________________________________________________________________
my_dense_118 (MyDense)       (1, 50, 200)              400       
_________________________________________________________________
my_simple_dense_118 (MySimpl (1, 50, 1)                201       
=================================================================
Total params: 602
Trainable params: 602
Non-trainable params: 0
_________________________________________________________________
_________________________________________________________________
Layer (type)                 Output Shape              Param #   
=================================================================
operator_119 (Operator)      (1, 50, 1)                1         
_________________________________________________________________
my_dense_119 (MyDense)       (1, 50, 200)              400       
_________________________________________________________________
my_simple_dense_119 (MySimpl (1, 50, 1)                201       
=================================================================
Total params: 602
Trainable params: 602
Non-trainable params: 0
_________________________________________________________________
_________________________________________________________________
Layer (type)                 Output Shape              Param #   
=================================================================
operator_120 (Operator)      (1, 50, 1)                1         
_________________________________________________________________
my_dense_120 (MyDense)       (1, 50, 200)              400       
_________________________________________________________________
my_simple_dense_120 (MySimpl (1, 50, 1)                201       
=================================================================
Total params: 602
Trainable params: 602
Non-trainable params: 0
_________________________________________________________________
_________________________________________________________________
Layer (type)                 Output Shape              Param #   
=================================================================
operator_121 (Operator)      (1, 50, 1)                1         
_________________________________________________________________
my_dense_121 (MyDense)       (1, 50, 200)              400       
_________________________________________________________________
my_simple_dense_121 (MySimpl (1, 50, 1)                201       
=================================================================
Total params: 602
Trainable params: 602
Non-trainable params: 0
_________________________________________________________________
_________________________________________________________________
Layer (type)                 Output Shape              Param #   
=================================================================
operator_122 (Operator)      (1, 50, 1)                1         
_________________________________________________________________
my_dense_122 (MyDense)       (1, 50, 200)              400       
_________________________________________________________________
my_simple_dense_122 (MySimpl (1, 50, 1)                201       
=================================================================
Total params: 602
Trainable params: 602
Non-trainable params: 0
_________________________________________________________________
_________________________________________________________________
Layer (type)                 Output Shape              Param #   
=================================================================
operator_123 (Operator)      (1, 50, 1)                1         
_________________________________________________________________
my_dense_123 (MyDense)       (1, 50, 200)              400       
_________________________________________________________________
my_simple_dense_123 (MySimpl (1, 50, 1)                201       
=================================================================
Total params: 602
Trainable params: 602
Non-trainable params: 0
_________________________________________________________________
_________________________________________________________________
Layer (type)                 Output Shape              Param #   
=================================================================
operator_124 (Operator)      (1, 50, 1)                1         
_________________________________________________________________
my_dense_124 (MyDense)       (1, 50, 200)              400       
_________________________________________________________________
my_simple_dense_124 (MySimpl (1, 50, 1)                201       
=================================================================
Total params: 602
Trainable params: 602
Non-trainable params: 0
_________________________________________________________________
_________________________________________________________________
Layer (type)                 Output Shape              Param #   
=================================================================
operator_125 (Operator)      (1, 50, 1)                1         
_________________________________________________________________
my_dense_125 (MyDense)       (1, 50, 200)              400       
_________________________________________________________________
my_simple_dense_125 (MySimpl (1, 50, 1)                201       
=================================================================
Total params: 602
Trainable params: 602
Non-trainable params: 0
_________________________________________________________________
_________________________________________________________________
Layer (type)                 Output Shape              Param #   
=================================================================
operator_126 (Operator)      (1, 50, 1)                1         
_________________________________________________________________
my_dense_126 (MyDense)       (1, 50, 200)              400       
_________________________________________________________________
my_simple_dense_126 (MySimpl (1, 50, 1)                201       
=================================================================
Total params: 602
Trainable params: 602
Non-trainable params: 0
_________________________________________________________________
_________________________________________________________________
Layer (type)                 Output Shape              Param #   
=================================================================
operator_127 (Operator)      (1, 50, 1)                1         
_________________________________________________________________
my_dense_127 (MyDense)       (1, 50, 200)              400       
_________________________________________________________________
my_simple_dense_127 (MySimpl (1, 50, 1)                201       
=================================================================
Total params: 602
Trainable params: 602
Non-trainable params: 0
_________________________________________________________________
_________________________________________________________________
Layer (type)                 Output Shape              Param #   
=================================================================
operator_128 (Operator)      (1, 50, 1)                1         
_________________________________________________________________
my_dense_128 (MyDense)       (1, 50, 200)              400       
_________________________________________________________________
my_simple_dense_128 (MySimpl (1, 50, 1)                201       
=================================================================
Total params: 602
Trainable params: 602
Non-trainable params: 0
_________________________________________________________________
_________________________________________________________________
Layer (type)                 Output Shape              Param #   
=================================================================
operator_129 (Operator)      (1, 50, 1)                1         
_________________________________________________________________
my_dense_129 (MyDense)       (1, 50, 200)              400       
_________________________________________________________________
my_simple_dense_129 (MySimpl (1, 50, 1)                201       
=================================================================
Total params: 602
Trainable params: 602
Non-trainable params: 0
_________________________________________________________________
_________________________________________________________________
Layer (type)                 Output Shape              Param #   
=================================================================
operator_130 (Operator)      (1, 50, 1)                1         
_________________________________________________________________
my_dense_130 (MyDense)       (1, 50, 200)              400       
_________________________________________________________________
my_simple_dense_130 (MySimpl (1, 50, 1)                201       
=================================================================
Total params: 602
Trainable params: 602
Non-trainable params: 0
_________________________________________________________________
_________________________________________________________________
Layer (type)                 Output Shape              Param #   
=================================================================
operator_131 (Operator)      (1, 50, 1)                1         
_________________________________________________________________
my_dense_131 (MyDense)       (1, 50, 200)              400       
_________________________________________________________________
my_simple_dense_131 (MySimpl (1, 50, 1)                201       
=================================================================
Total params: 602
Trainable params: 602
Non-trainable params: 0
_________________________________________________________________
_________________________________________________________________
Layer (type)                 Output Shape              Param #   
=================================================================
operator_132 (Operator)      (1, 50, 1)                1         
_________________________________________________________________
my_dense_132 (MyDense)       (1, 50, 200)              400       
_________________________________________________________________
my_simple_dense_132 (MySimpl (1, 50, 1)                201       
=================================================================
Total params: 602
Trainable params: 602
Non-trainable params: 0
_________________________________________________________________
_________________________________________________________________
Layer (type)                 Output Shape              Param #   
=================================================================
operator_133 (Operator)      (1, 50, 1)                1         
_________________________________________________________________
my_dense_133 (MyDense)       (1, 50, 200)              400       
_________________________________________________________________
my_simple_dense_133 (MySimpl (1, 50, 1)                201       
=================================================================
Total params: 602
Trainable params: 602
Non-trainable params: 0
_________________________________________________________________
_________________________________________________________________
Layer (type)                 Output Shape              Param #   
=================================================================
operator_134 (Operator)      (1, 50, 1)                1         
_________________________________________________________________
my_dense_134 (MyDense)       (1, 50, 200)              400       
_________________________________________________________________
my_simple_dense_134 (MySimpl (1, 50, 1)                201       
=================================================================
Total params: 602
Trainable params: 602
Non-trainable params: 0
_________________________________________________________________
_________________________________________________________________
Layer (type)                 Output Shape              Param #   
=================================================================
operator_135 (Operator)      (1, 50, 1)                1         
_________________________________________________________________
my_dense_135 (MyDense)       (1, 50, 200)              400       
_________________________________________________________________
my_simple_dense_135 (MySimpl (1, 50, 1)                201       
=================================================================
Total params: 602
Trainable params: 602
Non-trainable params: 0
_________________________________________________________________
_________________________________________________________________
Layer (type)                 Output Shape              Param #   
=================================================================
operator_136 (Operator)      (1, 50, 1)                1         
_________________________________________________________________
my_dense_136 (MyDense)       (1, 50, 200)              400       
_________________________________________________________________
my_simple_dense_136 (MySimpl (1, 50, 1)                201       
=================================================================
Total params: 602
Trainable params: 602
Non-trainable params: 0
_________________________________________________________________
_________________________________________________________________
Layer (type)                 Output Shape              Param #   
=================================================================
operator_137 (Operator)      (1, 50, 1)                1         
_________________________________________________________________
my_dense_137 (MyDense)       (1, 50, 200)              400       
_________________________________________________________________
my_simple_dense_137 (MySimpl (1, 50, 1)                201       
=================================================================
Total params: 602
Trainable params: 602
Non-trainable params: 0
_________________________________________________________________
_________________________________________________________________
Layer (type)                 Output Shape              Param #   
=================================================================
operator_138 (Operator)      (1, 50, 1)                1         
_________________________________________________________________
my_dense_138 (MyDense)       (1, 50, 200)              400       
_________________________________________________________________
my_simple_dense_138 (MySimpl (1, 50, 1)                201       
=================================================================
Total params: 602
Trainable params: 602
Non-trainable params: 0
_________________________________________________________________
_________________________________________________________________
Layer (type)                 Output Shape              Param #   
=================================================================
operator_139 (Operator)      (1, 50, 1)                1         
_________________________________________________________________
my_dense_139 (MyDense)       (1, 50, 200)              400       
_________________________________________________________________
my_simple_dense_139 (MySimpl (1, 50, 1)                201       
=================================================================
Total params: 602
Trainable params: 602
Non-trainable params: 0
_________________________________________________________________
_________________________________________________________________
Layer (type)                 Output Shape              Param #   
=================================================================
operator_140 (Operator)      (1, 50, 1)                1         
_________________________________________________________________
my_dense_140 (MyDense)       (1, 50, 200)              400       
_________________________________________________________________
my_simple_dense_140 (MySimpl (1, 50, 1)                201       
=================================================================
Total params: 602
Trainable params: 602
Non-trainable params: 0
_________________________________________________________________
_________________________________________________________________
Layer (type)                 Output Shape              Param #   
=================================================================
operator_141 (Operator)      (1, 50, 1)                1         
_________________________________________________________________
my_dense_141 (MyDense)       (1, 50, 200)              400       
_________________________________________________________________
my_simple_dense_141 (MySimpl (1, 50, 1)                201       
=================================================================
Total params: 602
Trainable params: 602
Non-trainable params: 0
_________________________________________________________________
_________________________________________________________________
Layer (type)                 Output Shape              Param #   
=================================================================
operator_142 (Operator)      (1, 50, 1)                1         
_________________________________________________________________
my_dense_142 (MyDense)       (1, 50, 200)              400       
_________________________________________________________________
my_simple_dense_142 (MySimpl (1, 50, 1)                201       
=================================================================
Total params: 602
Trainable params: 602
Non-trainable params: 0
_________________________________________________________________
_________________________________________________________________
Layer (type)                 Output Shape              Param #   
=================================================================
operator_143 (Operator)      (1, 50, 1)                1         
_________________________________________________________________
my_dense_143 (MyDense)       (1, 50, 200)              400       
_________________________________________________________________
my_simple_dense_143 (MySimpl (1, 50, 1)                201       
=================================================================
Total params: 602
Trainable params: 602
Non-trainable params: 0
_________________________________________________________________
_________________________________________________________________
Layer (type)                 Output Shape              Param #   
=================================================================
operator_144 (Operator)      (1, 50, 1)                1         
_________________________________________________________________
my_dense_144 (MyDense)       (1, 50, 200)              400       
_________________________________________________________________
my_simple_dense_144 (MySimpl (1, 50, 1)                201       
=================================================================
Total params: 602
Trainable params: 602
Non-trainable params: 0
_________________________________________________________________
_________________________________________________________________
Layer (type)                 Output Shape              Param #   
=================================================================
operator_145 (Operator)      (1, 50, 1)                1         
_________________________________________________________________
my_dense_145 (MyDense)       (1, 50, 200)              400       
_________________________________________________________________
my_simple_dense_145 (MySimpl (1, 50, 1)                201       
=================================================================
Total params: 602
Trainable params: 602
Non-trainable params: 0
_________________________________________________________________
_________________________________________________________________
Layer (type)                 Output Shape              Param #   
=================================================================
operator_146 (Operator)      (1, 50, 1)                1         
_________________________________________________________________
my_dense_146 (MyDense)       (1, 50, 200)              400       
_________________________________________________________________
my_simple_dense_146 (MySimpl (1, 50, 1)                201       
=================================================================
Total params: 602
Trainable params: 602
Non-trainable params: 0
_________________________________________________________________
_________________________________________________________________
Layer (type)                 Output Shape              Param #   
=================================================================
operator_147 (Operator)      (1, 50, 1)                1         
_________________________________________________________________
my_dense_147 (MyDense)       (1, 50, 200)              400       
_________________________________________________________________
my_simple_dense_147 (MySimpl (1, 50, 1)                201       
=================================================================
Total params: 602
Trainable params: 602
Non-trainable params: 0
_________________________________________________________________
_________________________________________________________________
Layer (type)                 Output Shape              Param #   
=================================================================
operator_148 (Operator)      (1, 50, 1)                1         
_________________________________________________________________
my_dense_148 (MyDense)       (1, 50, 200)              400       
_________________________________________________________________
my_simple_dense_148 (MySimpl (1, 50, 1)                201       
=================================================================
Total params: 602
Trainable params: 602
Non-trainable params: 0
_________________________________________________________________
_________________________________________________________________
Layer (type)                 Output Shape              Param #   
=================================================================
operator_149 (Operator)      (1, 50, 1)                1         
_________________________________________________________________
my_dense_149 (MyDense)       (1, 50, 200)              400       
_________________________________________________________________
my_simple_dense_149 (MySimpl (1, 50, 1)                201       
=================================================================
Total params: 602
Trainable params: 602
Non-trainable params: 0
_________________________________________________________________
_________________________________________________________________
Layer (type)                 Output Shape              Param #   
=================================================================
operator_150 (Operator)      (1, 50, 1)                1         
_________________________________________________________________
my_dense_150 (MyDense)       (1, 50, 200)              400       
_________________________________________________________________
my_simple_dense_150 (MySimpl (1, 50, 1)                201       
=================================================================
Total params: 602
Trainable params: 602
Non-trainable params: 0
_________________________________________________________________
_________________________________________________________________
Layer (type)                 Output Shape              Param #   
=================================================================
operator_151 (Operator)      (1, 50, 1)                1         
_________________________________________________________________
my_dense_151 (MyDense)       (1, 50, 200)              400       
_________________________________________________________________
my_simple_dense_151 (MySimpl (1, 50, 1)                201       
=================================================================
Total params: 602
Trainable params: 602
Non-trainable params: 0
_________________________________________________________________
_________________________________________________________________
Layer (type)                 Output Shape              Param #   
=================================================================
operator_152 (Operator)      (1, 50, 1)                1         
_________________________________________________________________
my_dense_152 (MyDense)       (1, 50, 200)              400       
_________________________________________________________________
my_simple_dense_152 (MySimpl (1, 50, 1)                201       
=================================================================
Total params: 602
Trainable params: 602
Non-trainable params: 0
_________________________________________________________________
_________________________________________________________________
Layer (type)                 Output Shape              Param #   
=================================================================
operator_153 (Operator)      (1, 50, 1)                1         
_________________________________________________________________
my_dense_153 (MyDense)       (1, 50, 200)              400       
_________________________________________________________________
my_simple_dense_153 (MySimpl (1, 50, 1)                201       
=================================================================
Total params: 602
Trainable params: 602
Non-trainable params: 0
_________________________________________________________________
_________________________________________________________________
Layer (type)                 Output Shape              Param #   
=================================================================
operator_154 (Operator)      (1, 50, 1)                1         
_________________________________________________________________
my_dense_154 (MyDense)       (1, 50, 200)              400       
_________________________________________________________________
my_simple_dense_154 (MySimpl (1, 50, 1)                201       
=================================================================
Total params: 602
Trainable params: 602
Non-trainable params: 0
_________________________________________________________________
_________________________________________________________________
Layer (type)                 Output Shape              Param #   
=================================================================
operator_155 (Operator)      (1, 50, 1)                1         
_________________________________________________________________
my_dense_155 (MyDense)       (1, 50, 200)              400       
_________________________________________________________________
my_simple_dense_155 (MySimpl (1, 50, 1)                201       
=================================================================
Total params: 602
Trainable params: 602
Non-trainable params: 0
_________________________________________________________________
_________________________________________________________________
Layer (type)                 Output Shape              Param #   
=================================================================
operator_156 (Operator)      (1, 50, 1)                1         
_________________________________________________________________
my_dense_156 (MyDense)       (1, 50, 200)              400       
_________________________________________________________________
my_simple_dense_156 (MySimpl (1, 50, 1)                201       
=================================================================
Total params: 602
Trainable params: 602
Non-trainable params: 0
_________________________________________________________________
_________________________________________________________________
Layer (type)                 Output Shape              Param #   
=================================================================
operator_157 (Operator)      (1, 50, 1)                1         
_________________________________________________________________
my_dense_157 (MyDense)       (1, 50, 200)              400       
_________________________________________________________________
my_simple_dense_157 (MySimpl (1, 50, 1)                201       
=================================================================
Total params: 602
Trainable params: 602
Non-trainable params: 0
_________________________________________________________________
_________________________________________________________________
Layer (type)                 Output Shape              Param #   
=================================================================
operator_158 (Operator)      (1, 50, 1)                1         
_________________________________________________________________
my_dense_158 (MyDense)       (1, 50, 200)              400       
_________________________________________________________________
my_simple_dense_158 (MySimpl (1, 50, 1)                201       
=================================================================
Total params: 602
Trainable params: 602
Non-trainable params: 0
_________________________________________________________________
_________________________________________________________________
Layer (type)                 Output Shape              Param #   
=================================================================
operator_159 (Operator)      (1, 50, 1)                1         
_________________________________________________________________
my_dense_159 (MyDense)       (1, 50, 200)              400       
_________________________________________________________________
my_simple_dense_159 (MySimpl (1, 50, 1)                201       
=================================================================
Total params: 602
Trainable params: 602
Non-trainable params: 0
_________________________________________________________________
_________________________________________________________________
Layer (type)                 Output Shape              Param #   
=================================================================
operator_160 (Operator)      (1, 50, 1)                1         
_________________________________________________________________
my_dense_160 (MyDense)       (1, 50, 200)              400       
_________________________________________________________________
my_simple_dense_160 (MySimpl (1, 50, 1)                201       
=================================================================
Total params: 602
Trainable params: 602
Non-trainable params: 0
_________________________________________________________________
_________________________________________________________________
Layer (type)                 Output Shape              Param #   
=================================================================
operator_161 (Operator)      (1, 50, 1)                1         
_________________________________________________________________
my_dense_161 (MyDense)       (1, 50, 200)              400       
_________________________________________________________________
my_simple_dense_161 (MySimpl (1, 50, 1)                201       
=================================================================
Total params: 602
Trainable params: 602
Non-trainable params: 0
_________________________________________________________________
_________________________________________________________________
Layer (type)                 Output Shape              Param #   
=================================================================
operator_162 (Operator)      (1, 50, 1)                1         
_________________________________________________________________
my_dense_162 (MyDense)       (1, 50, 200)              400       
_________________________________________________________________
my_simple_dense_162 (MySimpl (1, 50, 1)                201       
=================================================================
Total params: 602
Trainable params: 602
Non-trainable params: 0
_________________________________________________________________
_________________________________________________________________
Layer (type)                 Output Shape              Param #   
=================================================================
operator_163 (Operator)      (1, 50, 1)                1         
_________________________________________________________________
my_dense_163 (MyDense)       (1, 50, 200)              400       
_________________________________________________________________
my_simple_dense_163 (MySimpl (1, 50, 1)                201       
=================================================================
Total params: 602
Trainable params: 602
Non-trainable params: 0
_________________________________________________________________
_________________________________________________________________
Layer (type)                 Output Shape              Param #   
=================================================================
operator_164 (Operator)      (1, 50, 1)                1         
_________________________________________________________________
my_dense_164 (MyDense)       (1, 50, 200)              400       
_________________________________________________________________
my_simple_dense_164 (MySimpl (1, 50, 1)                201       
=================================================================
Total params: 602
Trainable params: 602
Non-trainable params: 0
_________________________________________________________________
_________________________________________________________________
Layer (type)                 Output Shape              Param #   
=================================================================
operator_165 (Operator)      (1, 50, 1)                1         
_________________________________________________________________
my_dense_165 (MyDense)       (1, 50, 200)              400       
_________________________________________________________________
my_simple_dense_165 (MySimpl (1, 50, 1)                201       
=================================================================
Total params: 602
Trainable params: 602
Non-trainable params: 0
_________________________________________________________________
_________________________________________________________________
Layer (type)                 Output Shape              Param #   
=================================================================
operator_166 (Operator)      (1, 50, 1)                1         
_________________________________________________________________
my_dense_166 (MyDense)       (1, 50, 200)              400       
_________________________________________________________________
my_simple_dense_166 (MySimpl (1, 50, 1)                201       
=================================================================
Total params: 602
Trainable params: 602
Non-trainable params: 0
_________________________________________________________________
_________________________________________________________________
Layer (type)                 Output Shape              Param #   
=================================================================
operator_167 (Operator)      (1, 50, 1)                1         
_________________________________________________________________
my_dense_167 (MyDense)       (1, 50, 200)              400       
_________________________________________________________________
my_simple_dense_167 (MySimpl (1, 50, 1)                201       
=================================================================
Total params: 602
Trainable params: 602
Non-trainable params: 0
_________________________________________________________________
_________________________________________________________________
Layer (type)                 Output Shape              Param #   
=================================================================
operator_168 (Operator)      (1, 50, 1)                1         
_________________________________________________________________
my_dense_168 (MyDense)       (1, 50, 200)              400       
_________________________________________________________________
my_simple_dense_168 (MySimpl (1, 50, 1)                201       
=================================================================
Total params: 602
Trainable params: 602
Non-trainable params: 0
_________________________________________________________________
_________________________________________________________________
Layer (type)                 Output Shape              Param #   
=================================================================
operator_169 (Operator)      (1, 50, 1)                1         
_________________________________________________________________
my_dense_169 (MyDense)       (1, 50, 200)              400       
_________________________________________________________________
my_simple_dense_169 (MySimpl (1, 50, 1)                201       
=================================================================
Total params: 602
Trainable params: 602
Non-trainable params: 0
_________________________________________________________________
_________________________________________________________________
Layer (type)                 Output Shape              Param #   
=================================================================
operator_170 (Operator)      (1, 50, 1)                1         
_________________________________________________________________
my_dense_170 (MyDense)       (1, 50, 200)              400       
_________________________________________________________________
my_simple_dense_170 (MySimpl (1, 50, 1)                201       
=================================================================
Total params: 602
Trainable params: 602
Non-trainable params: 0
_________________________________________________________________
_________________________________________________________________
Layer (type)                 Output Shape              Param #   
=================================================================
operator_171 (Operator)      (1, 50, 1)                1         
_________________________________________________________________
my_dense_171 (MyDense)       (1, 50, 200)              400       
_________________________________________________________________
my_simple_dense_171 (MySimpl (1, 50, 1)                201       
=================================================================
Total params: 602
Trainable params: 602
Non-trainable params: 0
_________________________________________________________________
_________________________________________________________________
Layer (type)                 Output Shape              Param #   
=================================================================
operator_172 (Operator)      (1, 50, 1)                1         
_________________________________________________________________
my_dense_172 (MyDense)       (1, 50, 200)              400       
_________________________________________________________________
my_simple_dense_172 (MySimpl (1, 50, 1)                201       
=================================================================
Total params: 602
Trainable params: 602
Non-trainable params: 0
_________________________________________________________________
_________________________________________________________________
Layer (type)                 Output Shape              Param #   
=================================================================
operator_173 (Operator)      (1, 50, 1)                1         
_________________________________________________________________
my_dense_173 (MyDense)       (1, 50, 200)              400       
_________________________________________________________________
my_simple_dense_173 (MySimpl (1, 50, 1)                201       
=================================================================
Total params: 602
Trainable params: 602
Non-trainable params: 0
_________________________________________________________________
_________________________________________________________________
Layer (type)                 Output Shape              Param #   
=================================================================
operator_174 (Operator)      (1, 50, 1)                1         
_________________________________________________________________
my_dense_174 (MyDense)       (1, 50, 200)              400       
_________________________________________________________________
my_simple_dense_174 (MySimpl (1, 50, 1)                201       
=================================================================
Total params: 602
Trainable params: 602
Non-trainable params: 0
_________________________________________________________________
_________________________________________________________________
Layer (type)                 Output Shape              Param #   
=================================================================
operator_175 (Operator)      (1, 50, 1)                1         
_________________________________________________________________
my_dense_175 (MyDense)       (1, 50, 200)              400       
_________________________________________________________________
my_simple_dense_175 (MySimpl (1, 50, 1)                201       
=================================================================
Total params: 602
Trainable params: 602
Non-trainable params: 0
_________________________________________________________________
_________________________________________________________________
Layer (type)                 Output Shape              Param #   
=================================================================
operator_176 (Operator)      (1, 50, 1)                1         
_________________________________________________________________
my_dense_176 (MyDense)       (1, 50, 200)              400       
_________________________________________________________________
my_simple_dense_176 (MySimpl (1, 50, 1)                201       
=================================================================
Total params: 602
Trainable params: 602
Non-trainable params: 0
_________________________________________________________________
_________________________________________________________________
Layer (type)                 Output Shape              Param #   
=================================================================
operator_177 (Operator)      (1, 50, 1)                1         
_________________________________________________________________
my_dense_177 (MyDense)       (1, 50, 200)              400       
_________________________________________________________________
my_simple_dense_177 (MySimpl (1, 50, 1)                201       
=================================================================
Total params: 602
Trainable params: 602
Non-trainable params: 0
_________________________________________________________________
_________________________________________________________________
Layer (type)                 Output Shape              Param #   
=================================================================
operator_178 (Operator)      (1, 50, 1)                1         
_________________________________________________________________
my_dense_178 (MyDense)       (1, 50, 200)              400       
_________________________________________________________________
my_simple_dense_178 (MySimpl (1, 50, 1)                201       
=================================================================
Total params: 602
Trainable params: 602
Non-trainable params: 0
_________________________________________________________________
_________________________________________________________________
Layer (type)                 Output Shape              Param #   
=================================================================
operator_179 (Operator)      (1, 50, 1)                1         
_________________________________________________________________
my_dense_179 (MyDense)       (1, 50, 200)              400       
_________________________________________________________________
my_simple_dense_179 (MySimpl (1, 50, 1)                201       
=================================================================
Total params: 602
Trainable params: 602
Non-trainable params: 0
_________________________________________________________________
_________________________________________________________________
Layer (type)                 Output Shape              Param #   
=================================================================
operator_180 (Operator)      (1, 50, 1)                1         
_________________________________________________________________
my_dense_180 (MyDense)       (1, 50, 200)              400       
_________________________________________________________________
my_simple_dense_180 (MySimpl (1, 50, 1)                201       
=================================================================
Total params: 602
Trainable params: 602
Non-trainable params: 0
_________________________________________________________________
_________________________________________________________________
Layer (type)                 Output Shape              Param #   
=================================================================
operator_181 (Operator)      (1, 50, 1)                1         
_________________________________________________________________
my_dense_181 (MyDense)       (1, 50, 200)              400       
_________________________________________________________________
my_simple_dense_181 (MySimpl (1, 50, 1)                201       
=================================================================
Total params: 602
Trainable params: 602
Non-trainable params: 0
_________________________________________________________________
_________________________________________________________________
Layer (type)                 Output Shape              Param #   
=================================================================
operator_182 (Operator)      (1, 50, 1)                1         
_________________________________________________________________
my_dense_182 (MyDense)       (1, 50, 200)              400       
_________________________________________________________________
my_simple_dense_182 (MySimpl (1, 50, 1)                201       
=================================================================
Total params: 602
Trainable params: 602
Non-trainable params: 0
_________________________________________________________________
_________________________________________________________________
Layer (type)                 Output Shape              Param #   
=================================================================
operator_183 (Operator)      (1, 50, 1)                1         
_________________________________________________________________
my_dense_183 (MyDense)       (1, 50, 200)              400       
_________________________________________________________________
my_simple_dense_183 (MySimpl (1, 50, 1)                201       
=================================================================
Total params: 602
Trainable params: 602
Non-trainable params: 0
_________________________________________________________________
_________________________________________________________________
Layer (type)                 Output Shape              Param #   
=================================================================
operator_184 (Operator)      (1, 50, 1)                1         
_________________________________________________________________
my_dense_184 (MyDense)       (1, 50, 200)              400       
_________________________________________________________________
my_simple_dense_184 (MySimpl (1, 50, 1)                201       
=================================================================
Total params: 602
Trainable params: 602
Non-trainable params: 0
_________________________________________________________________
_________________________________________________________________
Layer (type)                 Output Shape              Param #   
=================================================================
operator_185 (Operator)      (1, 50, 1)                1         
_________________________________________________________________
my_dense_185 (MyDense)       (1, 50, 200)              400       
_________________________________________________________________
my_simple_dense_185 (MySimpl (1, 50, 1)                201       
=================================================================
Total params: 602
Trainable params: 602
Non-trainable params: 0
_________________________________________________________________
_________________________________________________________________
Layer (type)                 Output Shape              Param #   
=================================================================
operator_186 (Operator)      (1, 50, 1)                1         
_________________________________________________________________
my_dense_186 (MyDense)       (1, 50, 200)              400       
_________________________________________________________________
my_simple_dense_186 (MySimpl (1, 50, 1)                201       
=================================================================
Total params: 602
Trainable params: 602
Non-trainable params: 0
_________________________________________________________________
_________________________________________________________________
Layer (type)                 Output Shape              Param #   
=================================================================
operator_187 (Operator)      (1, 50, 1)                1         
_________________________________________________________________
my_dense_187 (MyDense)       (1, 50, 200)              400       
_________________________________________________________________
my_simple_dense_187 (MySimpl (1, 50, 1)                201       
=================================================================
Total params: 602
Trainable params: 602
Non-trainable params: 0
_________________________________________________________________
_________________________________________________________________
Layer (type)                 Output Shape              Param #   
=================================================================
operator_188 (Operator)      (1, 50, 1)                1         
_________________________________________________________________
my_dense_188 (MyDense)       (1, 50, 200)              400       
_________________________________________________________________
my_simple_dense_188 (MySimpl (1, 50, 1)                201       
=================================================================
Total params: 602
Trainable params: 602
Non-trainable params: 0
_________________________________________________________________
_________________________________________________________________
Layer (type)                 Output Shape              Param #   
=================================================================
operator_189 (Operator)      (1, 50, 1)                1         
_________________________________________________________________
my_dense_189 (MyDense)       (1, 50, 200)              400       
_________________________________________________________________
my_simple_dense_189 (MySimpl (1, 50, 1)                201       
=================================================================
Total params: 602
Trainable params: 602
Non-trainable params: 0
_________________________________________________________________
_________________________________________________________________
Layer (type)                 Output Shape              Param #   
=================================================================
operator_190 (Operator)      (1, 50, 1)                1         
_________________________________________________________________
my_dense_190 (MyDense)       (1, 50, 200)              400       
_________________________________________________________________
my_simple_dense_190 (MySimpl (1, 50, 1)                201       
=================================================================
Total params: 602
Trainable params: 602
Non-trainable params: 0
_________________________________________________________________
_________________________________________________________________
Layer (type)                 Output Shape              Param #   
=================================================================
operator_191 (Operator)      (1, 50, 1)                1         
_________________________________________________________________
my_dense_191 (MyDense)       (1, 50, 200)              400       
_________________________________________________________________
my_simple_dense_191 (MySimpl (1, 50, 1)                201       
=================================================================
Total params: 602
Trainable params: 602
Non-trainable params: 0
_________________________________________________________________
_________________________________________________________________
Layer (type)                 Output Shape              Param #   
=================================================================
operator_192 (Operator)      (1, 50, 1)                1         
_________________________________________________________________
my_dense_192 (MyDense)       (1, 50, 200)              400       
_________________________________________________________________
my_simple_dense_192 (MySimpl (1, 50, 1)                201       
=================================================================
Total params: 602
Trainable params: 602
Non-trainable params: 0
_________________________________________________________________
_________________________________________________________________
Layer (type)                 Output Shape              Param #   
=================================================================
operator_193 (Operator)      (1, 50, 1)                1         
_________________________________________________________________
my_dense_193 (MyDense)       (1, 50, 200)              400       
_________________________________________________________________
my_simple_dense_193 (MySimpl (1, 50, 1)                201       
=================================================================
Total params: 602
Trainable params: 602
Non-trainable params: 0
_________________________________________________________________
_________________________________________________________________
Layer (type)                 Output Shape              Param #   
=================================================================
operator_194 (Operator)      (1, 50, 1)                1         
_________________________________________________________________
my_dense_194 (MyDense)       (1, 50, 200)              400       
_________________________________________________________________
my_simple_dense_194 (MySimpl (1, 50, 1)                201       
=================================================================
Total params: 602
Trainable params: 602
Non-trainable params: 0
_________________________________________________________________
_________________________________________________________________
Layer (type)                 Output Shape              Param #   
=================================================================
operator_195 (Operator)      (1, 50, 1)                1         
_________________________________________________________________
my_dense_195 (MyDense)       (1, 50, 200)              400       
_________________________________________________________________
my_simple_dense_195 (MySimpl (1, 50, 1)                201       
=================================================================
Total params: 602
Trainable params: 602
Non-trainable params: 0
_________________________________________________________________
_________________________________________________________________
Layer (type)                 Output Shape              Param #   
=================================================================
operator_196 (Operator)      (1, 50, 1)                1         
_________________________________________________________________
my_dense_196 (MyDense)       (1, 50, 200)              400       
_________________________________________________________________
my_simple_dense_196 (MySimpl (1, 50, 1)                201       
=================================================================
Total params: 602
Trainable params: 602
Non-trainable params: 0
_________________________________________________________________
_________________________________________________________________
Layer (type)                 Output Shape              Param #   
=================================================================
operator_197 (Operator)      (1, 50, 1)                1         
_________________________________________________________________
my_dense_197 (MyDense)       (1, 50, 200)              400       
_________________________________________________________________
my_simple_dense_197 (MySimpl (1, 50, 1)                201       
=================================================================
Total params: 602
Trainable params: 602
Non-trainable params: 0
_________________________________________________________________
_________________________________________________________________
Layer (type)                 Output Shape              Param #   
=================================================================
operator_198 (Operator)      (1, 50, 1)                1         
_________________________________________________________________
my_dense_198 (MyDense)       (1, 50, 200)              400       
_________________________________________________________________
my_simple_dense_198 (MySimpl (1, 50, 1)                201       
=================================================================
Total params: 602
Trainable params: 602
Non-trainable params: 0
_________________________________________________________________
_________________________________________________________________
Layer (type)                 Output Shape              Param #   
=================================================================
operator_199 (Operator)      (1, 50, 1)                1         
_________________________________________________________________
my_dense_199 (MyDense)       (1, 50, 200)              400       
_________________________________________________________________
my_simple_dense_199 (MySimpl (1, 50, 1)                201       
=================================================================
Total params: 602
Trainable params: 602
Non-trainable params: 0
_________________________________________________________________
