…
2019-02-18 23:22:54 DEBUG core:82 Initialize *weight* randomly...
2019-02-18 23:22:56 DEBUG core:82 Initialize *weight* randomly...
2019-02-18 23:22:57 DEBUG core:82 Initialize *weight* randomly...
2019-02-18 23:22:59 DEBUG core:82 Initialize *weight* randomly...
2019-02-18 23:23:00 DEBUG core:82 Initialize *weight* randomly...
2019-02-18 23:23:03 DEBUG core:82 Initialize *weight* randomly...
_________________________________________________________________
Layer (type)                 Output Shape              Param #   
=================================================================
operator (Operator)          (1, 100, 1)               1         
_________________________________________________________________
reshape (Reshape)            (1, 100, 1)               0         
_________________________________________________________________
my_dense (MyDense)           (1, 100, 20)              40        
_________________________________________________________________
my_simple_dense (MySimpleDen (1, 100, 1)               21        
=================================================================
Total params: 62
Trainable params: 62
Non-trainable params: 0
_________________________________________________________________
_________________________________________________________________
Layer (type)                 Output Shape              Param #   
=================================================================
operator_1 (Operator)        (1, 100, 1)               1         
_________________________________________________________________
reshape_1 (Reshape)          (1, 100, 1)               0         
_________________________________________________________________
my_dense_1 (MyDense)         (1, 100, 20)              40        
_________________________________________________________________
my_simple_dense_1 (MySimpleD (1, 100, 1)               21        
=================================================================
Total params: 62
Trainable params: 62
Non-trainable params: 0
_________________________________________________________________
_________________________________________________________________
Layer (type)                 Output Shape              Param #   
=================================================================
operator_2 (Operator)        (1, 100, 1)               1         
_________________________________________________________________
reshape_2 (Reshape)          (1, 100, 1)               0         
_________________________________________________________________
my_dense_2 (MyDense)         (1, 100, 20)              40        
_________________________________________________________________
my_simple_dense_2 (MySimpleD (1, 100, 1)               21        
=================================================================
Total params: 62
Trainable params: 62
Non-trainable params: 0
_________________________________________________________________
_________________________________________________________________
Layer (type)                 Output Shape              Param #   
=================================================================
operator_3 (Operator)        (1, 100, 1)               1         
_________________________________________________________________
reshape_3 (Reshape)          (1, 100, 1)               0         
_________________________________________________________________
my_dense_3 (MyDense)         (1, 100, 20)              40        
_________________________________________________________________
my_simple_dense_3 (MySimpleD (1, 100, 1)               21        
=================================================================
Total params: 62
Trainable params: 62
Non-trainable params: 0
_________________________________________________________________
_________________________________________________________________
Layer (type)                 Output Shape              Param #   
=================================================================
operator_4 (Operator)        (1, 100, 1)               1         
_________________________________________________________________
reshape_4 (Reshape)          (1, 100, 1)               0         
_________________________________________________________________
my_dense_4 (MyDense)         (1, 100, 20)              40        
_________________________________________________________________
my_simple_dense_4 (MySimpleD (1, 100, 1)               21        
=================================================================
Total params: 62
Trainable params: 62
Non-trainable params: 0
_________________________________________________________________
_________________________________________________________________
Layer (type)                 Output Shape              Param #   
=================================================================
operator_5 (Operator)        (1, 100, 1)               1         
_________________________________________________________________
reshape_5 (Reshape)          (1, 100, 1)               0         
_________________________________________________________________
my_dense_5 (MyDense)         (1, 100, 20)              40        
_________________________________________________________________
my_simple_dense_5 (MySimpleD (1, 100, 1)               21        
=================================================================
Total params: 62
Trainable params: 62
Non-trainable params: 0
_________________________________________________________________
_________________________________________________________________
Layer (type)                 Output Shape              Param #   
=================================================================
operator_6 (Operator)        (1, 100, 1)               1         
_________________________________________________________________
reshape_6 (Reshape)          (1, 100, 1)               0         
_________________________________________________________________
my_dense_6 (MyDense)         (1, 100, 20)              40        
_________________________________________________________________
my_simple_dense_6 (MySimpleD (1, 100, 1)               21        
=================================================================
Total params: 62
Trainable params: 62
Non-trainable params: 0
_________________________________________________________________
_________________________________________________________________
Layer (type)                 Output Shape              Param #   
=================================================================
operator_7 (Operator)        (1, 100, 1)               1         
_________________________________________________________________
reshape_7 (Reshape)          (1, 100, 1)               0         
_________________________________________________________________
my_dense_7 (MyDense)         (1, 100, 20)              40        
_________________________________________________________________
my_simple_dense_7 (MySimpleD (1, 100, 1)               21        
=================================================================
Total params: 62
Trainable params: 62
Non-trainable params: 0
_________________________________________________________________
_________________________________________________________________
Layer (type)                 Output Shape              Param #   
=================================================================
operator_8 (Operator)        (1, 100, 1)               1         
_________________________________________________________________
reshape_8 (Reshape)          (1, 100, 1)               0         
_________________________________________________________________
my_dense_8 (MyDense)         (1, 100, 20)              40        
_________________________________________________________________
my_simple_dense_8 (MySimpleD (1, 100, 1)               21        
=================================================================
Total params: 62
Trainable params: 62
Non-trainable params: 0
_________________________________________________________________
_________________________________________________________________
Layer (type)                 Output Shape              Param #   
=================================================================
operator_9 (Operator)        (1, 100, 1)               1         
_________________________________________________________________
reshape_9 (Reshape)          (1, 100, 1)               0         
_________________________________________________________________
my_dense_9 (MyDense)         (1, 100, 20)              40        2019-02-18 23:23:05 DEBUG core:82 Initialize *weight* randomly...
2019-02-18 23:23:08 DEBUG core:82 Initialize *weight* randomly...
2019-02-18 23:23:10 DEBUG core:82 Initialize *weight* randomly...
2019-02-18 23:23:13 DEBUG core:82 Initialize *weight* randomly...
2019-02-18 23:23:16 DEBUG core:82 Initialize *weight* randomly...
2019-02-18 23:23:19 DEBUG core:82 Initialize *weight* randomly...
2019-02-18 23:23:22 DEBUG core:82 Initialize *weight* randomly...
2019-02-18 23:23:26 DEBUG core:82 Initialize *weight* randomly...
2019-02-18 23:23:29 DEBUG core:82 Initialize *weight* randomly...
2019-02-18 23:23:34 DEBUG core:82 Initialize *weight* randomly...

_________________________________________________________________
my_simple_dense_9 (MySimpleD (1, 100, 1)               21        
=================================================================
Total params: 62
Trainable params: 62
Non-trainable params: 0
_________________________________________________________________
_________________________________________________________________
Layer (type)                 Output Shape              Param #   
=================================================================
operator_10 (Operator)       (1, 100, 1)               1         
_________________________________________________________________
reshape_10 (Reshape)         (1, 100, 1)               0         
_________________________________________________________________
my_dense_10 (MyDense)        (1, 100, 20)              40        
_________________________________________________________________
my_simple_dense_10 (MySimple (1, 100, 1)               21        
=================================================================
Total params: 62
Trainable params: 62
Non-trainable params: 0
_________________________________________________________________
_________________________________________________________________
Layer (type)                 Output Shape              Param #   
=================================================================
operator_11 (Operator)       (1, 100, 1)               1         
_________________________________________________________________
reshape_11 (Reshape)         (1, 100, 1)               0         
_________________________________________________________________
my_dense_11 (MyDense)        (1, 100, 20)              40        
_________________________________________________________________
my_simple_dense_11 (MySimple (1, 100, 1)               21        
=================================================================
Total params: 62
Trainable params: 62
Non-trainable params: 0
_________________________________________________________________
_________________________________________________________________
Layer (type)                 Output Shape              Param #   
=================================================================
operator_12 (Operator)       (1, 100, 1)               1         
_________________________________________________________________
reshape_12 (Reshape)         (1, 100, 1)               0         
_________________________________________________________________
my_dense_12 (MyDense)        (1, 100, 20)              40        
_________________________________________________________________
my_simple_dense_12 (MySimple (1, 100, 1)               21        
=================================================================
Total params: 62
Trainable params: 62
Non-trainable params: 0
_________________________________________________________________
_________________________________________________________________
Layer (type)                 Output Shape              Param #   
=================================================================
operator_13 (Operator)       (1, 100, 1)               1         
_________________________________________________________________
reshape_13 (Reshape)         (1, 100, 1)               0         
_________________________________________________________________
my_dense_13 (MyDense)        (1, 100, 20)              40        
_________________________________________________________________
my_simple_dense_13 (MySimple (1, 100, 1)               21        
=================================================================
Total params: 62
Trainable params: 62
Non-trainable params: 0
_________________________________________________________________
_________________________________________________________________
Layer (type)                 Output Shape              Param #   
=================================================================
operator_14 (Operator)       (1, 100, 1)               1         
_________________________________________________________________
reshape_14 (Reshape)         (1, 100, 1)               0         
_________________________________________________________________
my_dense_14 (MyDense)        (1, 100, 20)              40        
_________________________________________________________________
my_simple_dense_14 (MySimple (1, 100, 1)               21        
=================================================================
Total params: 62
Trainable params: 62
Non-trainable params: 0
_________________________________________________________________
_________________________________________________________________
Layer (type)                 Output Shape              Param #   
=================================================================
operator_15 (Operator)       (1, 100, 1)               1         
_________________________________________________________________
reshape_15 (Reshape)         (1, 100, 1)               0         
_________________________________________________________________
my_dense_15 (MyDense)        (1, 100, 20)              40        
_________________________________________________________________
my_simple_dense_15 (MySimple (1, 100, 1)               21        
=================================================================
Total params: 62
Trainable params: 62
Non-trainable params: 0
_________________________________________________________________
_________________________________________________________________
Layer (type)                 Output Shape              Param #   
=================================================================
operator_16 (Operator)       (1, 100, 1)               1         
_________________________________________________________________
reshape_16 (Reshape)         (1, 100, 1)               0         
_________________________________________________________________
my_dense_16 (MyDense)        (1, 100, 20)              40        
_________________________________________________________________
my_simple_dense_16 (MySimple (1, 100, 1)               21        
=================================================================
Total params: 62
Trainable params: 62
Non-trainable params: 0
_________________________________________________________________
_________________________________________________________________
Layer (type)                 Output Shape              Param #   
=================================================================
operator_17 (Operator)       (1, 100, 1)               1         
_________________________________________________________________
reshape_17 (Reshape)         (1, 100, 1)               0         
_________________________________________________________________
my_dense_17 (MyDense)        (1, 100, 20)              40        
_________________________________________________________________
my_simple_dense_17 (MySimple (1, 100, 1)               21        
=================================================================
Total params: 62
Trainable params: 62
Non-trainable params: 0
_________________________________________________________________
_________________________________________________________________
Layer (type)                 Output Shape              Param #   
=================================================================
operator_18 (Operator)       (1, 100, 1)               1         
_________________________________________________________________
reshape_18 (Reshape)         (1, 100, 1)               0         
_________________________________________________________________
my_dense_18 (MyDense)        (1, 100, 20)              40        
_________________________________________________________________
my_simple_dense_18 (MySimple (1, 100, 1)               21        
=================================================================
Total params: 62
Trainable params: 62
Non-trainable params: 0
_________________________________________________________________
_________________________________________________________________
Layer (type)                 Output Shape              Param #   
=================================================================2019-02-18 23:23:38 DEBUG core:82 Initialize *weight* randomly...
2019-02-18 23:23:43 DEBUG core:82 Initialize *weight* randomly...
2019-02-18 23:23:48 DEBUG core:82 Initialize *weight* randomly...
2019-02-18 23:23:54 DEBUG core:82 Initialize *weight* randomly...
2019-02-18 23:23:59 DEBUG core:82 Initialize *weight* randomly...
2019-02-18 23:24:05 DEBUG core:82 Initialize *weight* randomly...
2019-02-18 23:24:12 DEBUG core:82 Initialize *weight* randomly...
2019-02-18 23:24:17 DEBUG core:82 Initialize *weight* randomly...
2019-02-18 23:24:23 DEBUG core:82 Initialize *weight* randomly...

operator_19 (Operator)       (1, 100, 1)               1         
_________________________________________________________________
reshape_19 (Reshape)         (1, 100, 1)               0         
_________________________________________________________________
my_dense_19 (MyDense)        (1, 100, 20)              40        
_________________________________________________________________
my_simple_dense_19 (MySimple (1, 100, 1)               21        
=================================================================
Total params: 62
Trainable params: 62
Non-trainable params: 0
_________________________________________________________________
_________________________________________________________________
Layer (type)                 Output Shape              Param #   
=================================================================
operator_20 (Operator)       (1, 100, 1)               1         
_________________________________________________________________
reshape_20 (Reshape)         (1, 100, 1)               0         
_________________________________________________________________
my_dense_20 (MyDense)        (1, 100, 20)              40        
_________________________________________________________________
my_simple_dense_20 (MySimple (1, 100, 1)               21        
=================================================================
Total params: 62
Trainable params: 62
Non-trainable params: 0
_________________________________________________________________
_________________________________________________________________
Layer (type)                 Output Shape              Param #   
=================================================================
operator_21 (Operator)       (1, 100, 1)               1         
_________________________________________________________________
reshape_21 (Reshape)         (1, 100, 1)               0         
_________________________________________________________________
my_dense_21 (MyDense)        (1, 100, 20)              40        
_________________________________________________________________
my_simple_dense_21 (MySimple (1, 100, 1)               21        
=================================================================
Total params: 62
Trainable params: 62
Non-trainable params: 0
_________________________________________________________________
_________________________________________________________________
Layer (type)                 Output Shape              Param #   
=================================================================
operator_22 (Operator)       (1, 100, 1)               1         
_________________________________________________________________
reshape_22 (Reshape)         (1, 100, 1)               0         
_________________________________________________________________
my_dense_22 (MyDense)        (1, 100, 20)              40        
_________________________________________________________________
my_simple_dense_22 (MySimple (1, 100, 1)               21        
=================================================================
Total params: 62
Trainable params: 62
Non-trainable params: 0
_________________________________________________________________
_________________________________________________________________
Layer (type)                 Output Shape              Param #   
=================================================================
operator_23 (Operator)       (1, 100, 1)               1         
_________________________________________________________________
reshape_23 (Reshape)         (1, 100, 1)               0         
_________________________________________________________________
my_dense_23 (MyDense)        (1, 100, 20)              40        
_________________________________________________________________
my_simple_dense_23 (MySimple (1, 100, 1)               21        
=================================================================
Total params: 62
Trainable params: 62
Non-trainable params: 0
_________________________________________________________________
_________________________________________________________________
Layer (type)                 Output Shape              Param #   
=================================================================
operator_24 (Operator)       (1, 100, 1)               1         
_________________________________________________________________
reshape_24 (Reshape)         (1, 100, 1)               0         
_________________________________________________________________
my_dense_24 (MyDense)        (1, 100, 20)              40        
_________________________________________________________________
my_simple_dense_24 (MySimple (1, 100, 1)               21        
=================================================================
Total params: 62
Trainable params: 62
Non-trainable params: 0
_________________________________________________________________
_________________________________________________________________
Layer (type)                 Output Shape              Param #   
=================================================================
operator_25 (Operator)       (1, 100, 1)               1         
_________________________________________________________________
reshape_25 (Reshape)         (1, 100, 1)               0         
_________________________________________________________________
my_dense_25 (MyDense)        (1, 100, 20)              40        
_________________________________________________________________
my_simple_dense_25 (MySimple (1, 100, 1)               21        
=================================================================
Total params: 62
Trainable params: 62
Non-trainable params: 0
_________________________________________________________________
_________________________________________________________________
Layer (type)                 Output Shape              Param #   
=================================================================
operator_26 (Operator)       (1, 100, 1)               1         
_________________________________________________________________
reshape_26 (Reshape)         (1, 100, 1)               0         
_________________________________________________________________
my_dense_26 (MyDense)        (1, 100, 20)              40        
_________________________________________________________________
my_simple_dense_26 (MySimple (1, 100, 1)               21        
=================================================================
Total params: 62
Trainable params: 62
Non-trainable params: 0
_________________________________________________________________
_________________________________________________________________
Layer (type)                 Output Shape              Param #   
=================================================================
operator_27 (Operator)       (1, 100, 1)               1         
_________________________________________________________________
reshape_27 (Reshape)         (1, 100, 1)               0         
_________________________________________________________________
my_dense_27 (MyDense)        (1, 100, 20)              40        
_________________________________________________________________
my_simple_dense_27 (MySimple (1, 100, 1)               21        
=================================================================
Total params: 62
Trainable params: 62
Non-trainable params: 0
_________________________________________________________________
_________________________________________________________________
Layer (type)                 Output Shape              Param #   
=================================================================
operator_28 (Operator)       (1, 100, 1)               1         
_________________________________________________________________
reshape_28 (Reshape)         (1, 100, 1)               0         
_________________________________________________________________
my_dense_28 (MyDense)        (1, 100, 20)              40        
_________________________________________________________________
my_simple_dense_28 (MySimple (1, 100, 1)               21        
=================================================================2019-02-18 23:24:30 DEBUG core:82 Initialize *weight* randomly...
2019-02-18 23:24:37 DEBUG core:82 Initialize *weight* randomly...
2019-02-18 23:24:44 DEBUG core:82 Initialize *weight* randomly...
2019-02-18 23:24:53 DEBUG core:82 Initialize *weight* randomly...
2019-02-18 23:25:01 DEBUG core:82 Initialize *weight* randomly...
…
2019-02-18 23:25:16 DEBUG core:82 Initialize *weight* randomly...
2019-02-18 23:25:25 DEBUG core:82 Initialize *weight* randomly...
2019-02-18 23:25:34 DEBUG core:82 Initialize *weight* randomly...
2019-02-18 23:25:43 DEBUG core:82 Initialize *weight* randomly...

Total params: 62
Trainable params: 62
Non-trainable params: 0
_________________________________________________________________
_________________________________________________________________
Layer (type)                 Output Shape              Param #   
=================================================================
operator_29 (Operator)       (1, 100, 1)               1         
_________________________________________________________________
reshape_29 (Reshape)         (1, 100, 1)               0         
_________________________________________________________________
my_dense_29 (MyDense)        (1, 100, 20)              40        
_________________________________________________________________
my_simple_dense_29 (MySimple (1, 100, 1)               21        
=================================================================
Total params: 62
Trainable params: 62
Non-trainable params: 0
_________________________________________________________________
_________________________________________________________________
Layer (type)                 Output Shape              Param #   
=================================================================
operator_30 (Operator)       (1, 100, 1)               1         
_________________________________________________________________
reshape_30 (Reshape)         (1, 100, 1)               0         
_________________________________________________________________
my_dense_30 (MyDense)        (1, 100, 20)              40        
_________________________________________________________________
my_simple_dense_30 (MySimple (1, 100, 1)               21        
=================================================================
Total params: 62
Trainable params: 62
Non-trainable params: 0
_________________________________________________________________
_________________________________________________________________
Layer (type)                 Output Shape              Param #   
=================================================================
operator_31 (Operator)       (1, 100, 1)               1         
_________________________________________________________________
reshape_31 (Reshape)         (1, 100, 1)               0         
_________________________________________________________________
my_dense_31 (MyDense)        (1, 100, 20)              40        
_________________________________________________________________
my_simple_dense_31 (MySimple (1, 100, 1)               21        
=================================================================
Total params: 62
Trainable params: 62
Non-trainable params: 0
_________________________________________________________________
_________________________________________________________________
Layer (type)                 Output Shape              Param #   
=================================================================
operator_32 (Operator)       (1, 100, 1)               1         
_________________________________________________________________
reshape_32 (Reshape)         (1, 100, 1)               0         
_________________________________________________________________
my_dense_32 (MyDense)        (1, 100, 20)              40        
_________________________________________________________________
my_simple_dense_32 (MySimple (1, 100, 1)               21        
=================================================================
Total params: 62
Trainable params: 62
Non-trainable params: 0
_________________________________________________________________
_________________________________________________________________
Layer (type)                 Output Shape              Param #   
=================================================================
operator_33 (Operator)       (1, 100, 1)               1         
_________________________________________________________________
reshape_33 (Reshape)         (1, 100, 1)               0         
_________________________________________________________________
my_dense_33 (MyDense)        (1, 100, 20)              40        
_________________________________________________________________
my_simple_dense_33 (MySimple (1, 100, 1)               21        
=================================================================
Total params: 62
Trainable params: 62
Non-trainable params: 0
_________________________________________________________________
_________________________________________________________________
Layer (type)                 Output Shape              Param #   
=================================================================
operator_34 (Operator)       (1, 100, 1)               1         
_________________________________________________________________
reshape_34 (Reshape)         (1, 100, 1)               0         
_________________________________________________________________
my_dense_34 (MyDense)        (1, 100, 20)              40        
_________________________________________________________________
my_simple_dense_34 (MySimple (1, 100, 1)               21        
=================================================================
Total params: 62
Trainable params: 62
Non-trainable params: 0
_________________________________________________________________
_________________________________________________________________
Layer (type)                 Output Shape              Param #   
=================================================================
operator_35 (Operator)       (1, 100, 1)               1         
_________________________________________________________________
reshape_35 (Reshape)         (1, 100, 1)               0         
_________________________________________________________________
my_dense_35 (MyDense)        (1, 100, 20)              40        
_________________________________________________________________
my_simple_dense_35 (MySimple (1, 100, 1)               21        
=================================================================
Total params: 62
Trainable params: 62
Non-trainable params: 0
_________________________________________________________________
_________________________________________________________________
Layer (type)                 Output Shape              Param #   
=================================================================
operator_36 (Operator)       (1, 100, 1)               1         
_________________________________________________________________
reshape_36 (Reshape)         (1, 100, 1)               0         
_________________________________________________________________
my_dense_36 (MyDense)        (1, 100, 20)              40        
_________________________________________________________________
my_simple_dense_36 (MySimple (1, 100, 1)               21        
=================================================================
Total params: 62
Trainable params: 62
Non-trainable params: 0
_________________________________________________________________
_________________________________________________________________
Layer (type)                 Output Shape              Param #   
=================================================================
operator_37 (Operator)       (1, 100, 1)               1         
_________________________________________________________________
reshape_37 (Reshape)         (1, 100, 1)               0         
_________________________________________________________________
my_dense_37 (MyDense)        (1, 100, 20)              40        
_________________________________________________________________
my_simple_dense_37 (MySimple (1, 100, 1)               21        
=================================================================
Total params: 62
Trainable params: 62
Non-trainable params: 0
_________________________________________________________________
_________________________________________________________________
Layer (type)                 Output Shape              Param #   
=================================================================
operator_38 (Operator)       (1, 100, 1)               1         
_________________________________________________________________
reshape_38 (Reshape)         (1, 100, 1)               0         2019-02-18 23:25:54 DEBUG core:82 Initialize *weight* randomly...
2019-02-18 23:26:04 DEBUG core:323 reshape inputs to: (1, 100, 1)
2019-02-18 23:28:29 DEBUG core:645 Epoch: 1, Loss: 171.91220092773438
2019-02-18 23:28:29 DEBUG core:645 Epoch: 2, Loss: 171.64439392089844
2019-02-18 23:28:29 DEBUG core:645 Epoch: 3, Loss: 171.50221252441406
2019-02-18 23:28:30 DEBUG core:645 Epoch: 4, Loss: 171.3560028076172
…
2019-02-19 00:31:35 DEBUG core:670 play play-37 cost time 11.582736492156982 s
2019-02-19 00:31:35 DEBUG core:323 reshape inputs to: (1, 100, 1)
2019-02-19 00:31:47 DEBUG core:670 play play-38 cost time 12.068911075592041 s
2019-02-19 00:31:47 DEBUG core:323 reshape inputs to: (1, 100, 1)
2019-02-19 00:32:00 DEBUG core:670 play play-39 cost time 12.328120231628418 s
2019-02-19 00:32:00 DEBUG core:323 reshape inputs to: (1, 100, 1)
2019-02-19 00:32:13 DEBUG core:670 play play-40 cost time 13.071343660354614 s
2019-02-19 00:32:13 DEBUG __main__:42 loss: 0.00015411431377287954

_________________________________________________________________
my_dense_38 (MyDense)        (1, 100, 20)              40        
_________________________________________________________________
my_simple_dense_38 (MySimple (1, 100, 1)               21        
=================================================================
Total params: 62
Trainable params: 62
Non-trainable params: 0
_________________________________________________________________
_________________________________________________________________
Layer (type)                 Output Shape              Param #   
=================================================================
operator_39 (Operator)       (1, 100, 1)               1         
_________________________________________________________________
reshape_39 (Reshape)         (1, 100, 1)               0         
_________________________________________________________________
my_dense_39 (MyDense)        (1, 100, 20)              40        
_________________________________________________________________
my_simple_dense_39 (MySimple (1, 100, 1)               21        
=================================================================
Total params: 62
Trainable params: 62
Non-trainable params: 0
_________________________________________________________________
