…
2019-02-18 23:10:59 DEBUG core:82 Initialize *weight* randomly...
2019-02-18 23:10:59 DEBUG core:82 Initialize *weight* randomly...
2019-02-18 23:10:59 DEBUG core:82 Initialize *weight* randomly...
2019-02-18 23:10:59 DEBUG core:82 Initialize *weight* randomly...
2019-02-18 23:10:59 DEBUG core:82 Initialize *weight* randomly...
2019-02-18 23:11:00 DEBUG core:82 Initialize *weight* randomly...
_________________________________________________________________
Layer (type)                 Output Shape              Param #   
=================================================================
operator (Operator)          (1, 100, 1)               1         
_________________________________________________________________
reshape (Reshape)            (1, 100, 1)               0         
_________________________________________________________________
my_dense (MyDense)           (1, 100, 20)              40        
_________________________________________________________________
my_simple_dense (MySimpleDen (1, 100, 1)               21        
=================================================================
Total params: 62
Trainable params: 62
Non-trainable params: 0
_________________________________________________________________
_________________________________________________________________
Layer (type)                 Output Shape              Param #   
=================================================================
operator_1 (Operator)        (1, 100, 1)               1         
_________________________________________________________________
reshape_1 (Reshape)          (1, 100, 1)               0         
_________________________________________________________________
my_dense_1 (MyDense)         (1, 100, 20)              40        
_________________________________________________________________
my_simple_dense_1 (MySimpleD (1, 100, 1)               21        
=================================================================
Total params: 62
Trainable params: 62
Non-trainable params: 0
_________________________________________________________________
_________________________________________________________________
Layer (type)                 Output Shape              Param #   
=================================================================
operator_2 (Operator)        (1, 100, 1)               1         
_________________________________________________________________
reshape_2 (Reshape)          (1, 100, 1)               0         
_________________________________________________________________
my_dense_2 (MyDense)         (1, 100, 20)              40        
_________________________________________________________________
my_simple_dense_2 (MySimpleD (1, 100, 1)               21        
=================================================================
Total params: 62
Trainable params: 62
Non-trainable params: 0
_________________________________________________________________
_________________________________________________________________
Layer (type)                 Output Shape              Param #   
=================================================================
operator_3 (Operator)        (1, 100, 1)               1         
_________________________________________________________________
reshape_3 (Reshape)          (1, 100, 1)               0         
_________________________________________________________________
my_dense_3 (MyDense)         (1, 100, 20)              40        
_________________________________________________________________
my_simple_dense_3 (MySimpleD (1, 100, 1)               21        
=================================================================
Total params: 62
Trainable params: 62
Non-trainable params: 0
_________________________________________________________________
_________________________________________________________________
Layer (type)                 Output Shape              Param #   
=================================================================
operator_4 (Operator)        (1, 100, 1)               1         
_________________________________________________________________
reshape_4 (Reshape)          (1, 100, 1)               0         
_________________________________________________________________
my_dense_4 (MyDense)         (1, 100, 20)              40        
_________________________________________________________________
my_simple_dense_4 (MySimpleD (1, 100, 1)               21        
=================================================================
Total params: 62
Trainable params: 62
Non-trainable params: 0
_________________________________________________________________
_________________________________________________________________
Layer (type)                 Output Shape              Param #   
=================================================================
operator_5 (Operator)        (1, 100, 1)               1         
_________________________________________________________________
reshape_5 (Reshape)          (1, 100, 1)               0         
_________________________________________________________________
my_dense_5 (MyDense)         (1, 100, 20)              40        
_________________________________________________________________
my_simple_dense_5 (MySimpleD (1, 100, 1)               21        
=================================================================
Total params: 62
Trainable params: 62
Non-trainable params: 0
_________________________________________________________________
_________________________________________________________________
Layer (type)                 Output Shape              Param #   
=================================================================
operator_6 (Operator)        (1, 100, 1)               1         
_________________________________________________________________
reshape_6 (Reshape)          (1, 100, 1)               0         
_________________________________________________________________
my_dense_6 (MyDense)         (1, 100, 20)              40        
_________________________________________________________________
my_simple_dense_6 (MySimpleD (1, 100, 1)               21        
=================================================================
Total params: 62
Trainable params: 62
Non-trainable params: 0
_________________________________________________________________
_________________________________________________________________
Layer (type)                 Output Shape              Param #   
=================================================================
operator_7 (Operator)        (1, 100, 1)               1         
_________________________________________________________________
reshape_7 (Reshape)          (1, 100, 1)               0         
_________________________________________________________________
my_dense_7 (MyDense)         (1, 100, 20)              40        
_________________________________________________________________
my_simple_dense_7 (MySimpleD (1, 100, 1)               21        
=================================================================
Total params: 62
Trainable params: 62
Non-trainable params: 0
_________________________________________________________________
_________________________________________________________________
Layer (type)                 Output Shape              Param #   
=================================================================
operator_8 (Operator)        (1, 100, 1)               1         
_________________________________________________________________
reshape_8 (Reshape)          (1, 100, 1)               0         
_________________________________________________________________
my_dense_8 (MyDense)         (1, 100, 20)              40        
_________________________________________________________________
my_simple_dense_8 (MySimpleD (1, 100, 1)               21        
=================================================================
Total params: 62
Trainable params: 62
Non-trainable params: 0
_________________________________________________________________
_________________________________________________________________
Layer (type)                 Output Shape              Param #   
=================================================================
operator_9 (Operator)        (1, 100, 1)               1         
_________________________________________________________________
reshape_9 (Reshape)          (1, 100, 1)               0         
_________________________________________________________________
my_dense_9 (MyDense)         (1, 100, 20)              40        2019-02-18 23:11:00 DEBUG core:82 Initialize *weight* randomly...
2019-02-18 23:11:00 DEBUG core:82 Initialize *weight* randomly...
2019-02-18 23:11:01 DEBUG core:82 Initialize *weight* randomly...
2019-02-18 23:11:01 DEBUG core:82 Initialize *weight* randomly...
2019-02-18 23:11:01 DEBUG core:82 Initialize *weight* randomly...
2019-02-18 23:11:02 DEBUG core:82 Initialize *weight* randomly...
2019-02-18 23:11:02 DEBUG core:82 Initialize *weight* randomly...
2019-02-18 23:11:03 DEBUG core:82 Initialize *weight* randomly...
2019-02-18 23:11:03 DEBUG core:82 Initialize *weight* randomly...
2019-02-18 23:11:04 DEBUG core:82 Initialize *weight* randomly...

_________________________________________________________________
my_simple_dense_9 (MySimpleD (1, 100, 1)               21        
=================================================================
Total params: 62
Trainable params: 62
Non-trainable params: 0
_________________________________________________________________
_________________________________________________________________
Layer (type)                 Output Shape              Param #   
=================================================================
operator_10 (Operator)       (1, 100, 1)               1         
_________________________________________________________________
reshape_10 (Reshape)         (1, 100, 1)               0         
_________________________________________________________________
my_dense_10 (MyDense)        (1, 100, 20)              40        
_________________________________________________________________
my_simple_dense_10 (MySimple (1, 100, 1)               21        
=================================================================
Total params: 62
Trainable params: 62
Non-trainable params: 0
_________________________________________________________________
_________________________________________________________________
Layer (type)                 Output Shape              Param #   
=================================================================
operator_11 (Operator)       (1, 100, 1)               1         
_________________________________________________________________
reshape_11 (Reshape)         (1, 100, 1)               0         
_________________________________________________________________
my_dense_11 (MyDense)        (1, 100, 20)              40        
_________________________________________________________________
my_simple_dense_11 (MySimple (1, 100, 1)               21        
=================================================================
Total params: 62
Trainable params: 62
Non-trainable params: 0
_________________________________________________________________
_________________________________________________________________
Layer (type)                 Output Shape              Param #   
=================================================================
operator_12 (Operator)       (1, 100, 1)               1         
_________________________________________________________________
reshape_12 (Reshape)         (1, 100, 1)               0         
_________________________________________________________________
my_dense_12 (MyDense)        (1, 100, 20)              40        
_________________________________________________________________
my_simple_dense_12 (MySimple (1, 100, 1)               21        
=================================================================
Total params: 62
Trainable params: 62
Non-trainable params: 0
_________________________________________________________________
_________________________________________________________________
Layer (type)                 Output Shape              Param #   
=================================================================
operator_13 (Operator)       (1, 100, 1)               1         
_________________________________________________________________
reshape_13 (Reshape)         (1, 100, 1)               0         
_________________________________________________________________
my_dense_13 (MyDense)        (1, 100, 20)              40        
_________________________________________________________________
my_simple_dense_13 (MySimple (1, 100, 1)               21        
=================================================================
Total params: 62
Trainable params: 62
Non-trainable params: 0
_________________________________________________________________
_________________________________________________________________
Layer (type)                 Output Shape              Param #   
=================================================================
operator_14 (Operator)       (1, 100, 1)               1         
_________________________________________________________________
reshape_14 (Reshape)         (1, 100, 1)               0         
_________________________________________________________________
my_dense_14 (MyDense)        (1, 100, 20)              40        
_________________________________________________________________
my_simple_dense_14 (MySimple (1, 100, 1)               21        
=================================================================
Total params: 62
Trainable params: 62
Non-trainable params: 0
_________________________________________________________________
_________________________________________________________________
Layer (type)                 Output Shape              Param #   
=================================================================
operator_15 (Operator)       (1, 100, 1)               1         
_________________________________________________________________
reshape_15 (Reshape)         (1, 100, 1)               0         
_________________________________________________________________
my_dense_15 (MyDense)        (1, 100, 20)              40        
_________________________________________________________________
my_simple_dense_15 (MySimple (1, 100, 1)               21        
=================================================================
Total params: 62
Trainable params: 62
Non-trainable params: 0
_________________________________________________________________
_________________________________________________________________
Layer (type)                 Output Shape              Param #   
=================================================================
operator_16 (Operator)       (1, 100, 1)               1         
_________________________________________________________________
reshape_16 (Reshape)         (1, 100, 1)               0         
_________________________________________________________________
my_dense_16 (MyDense)        (1, 100, 20)              40        
_________________________________________________________________
my_simple_dense_16 (MySimple (1, 100, 1)               21        
=================================================================
Total params: 62
Trainable params: 62
Non-trainable params: 0
_________________________________________________________________
_________________________________________________________________
Layer (type)                 Output Shape              Param #   
=================================================================
operator_17 (Operator)       (1, 100, 1)               1         
_________________________________________________________________
reshape_17 (Reshape)         (1, 100, 1)               0         
_________________________________________________________________
my_dense_17 (MyDense)        (1, 100, 20)              40        
_________________________________________________________________
my_simple_dense_17 (MySimple (1, 100, 1)               21        
=================================================================
Total params: 62
Trainable params: 62
Non-trainable params: 0
_________________________________________________________________
_________________________________________________________________
Layer (type)                 Output Shape              Param #   
=================================================================
operator_18 (Operator)       (1, 100, 1)               1         
_________________________________________________________________
reshape_18 (Reshape)         (1, 100, 1)               0         
_________________________________________________________________
my_dense_18 (MyDense)        (1, 100, 20)              40        
_________________________________________________________________
my_simple_dense_18 (MySimple (1, 100, 1)               21        
=================================================================
Total params: 62
Trainable params: 62
Non-trainable params: 0
_________________________________________________________________
_________________________________________________________________
Layer (type)                 Output Shape              Param #   
=================================================================2019-02-18 23:11:05 DEBUG core:323 reshape inputs to: (1, 100, 1)
…
