…
2019-02-18 23:25:02 DEBUG core:82 Initialize *weight* randomly...
2019-02-18 23:25:03 DEBUG core:82 Initialize *weight* randomly...
2019-02-18 23:25:05 DEBUG core:82 Initialize *weight* randomly...
2019-02-18 23:25:07 DEBUG core:82 Initialize *weight* randomly...
2019-02-18 23:25:09 DEBUG core:82 Initialize *weight* randomly...
2019-02-18 23:25:11 DEBUG core:82 Initialize *weight* randomly...
_________________________________________________________________
Layer (type)                 Output Shape              Param #   
=================================================================
operator (Operator)          (1, 5000, 1)              1         
_________________________________________________________________
reshape (Reshape)            (1, 5000, 1)              0         
_________________________________________________________________
my_dense (MyDense)           (1, 5000, 20)             40        
_________________________________________________________________
my_simple_dense (MySimpleDen (1, 5000, 1)              21        
=================================================================
Total params: 62
Trainable params: 62
Non-trainable params: 0
_________________________________________________________________
_________________________________________________________________
Layer (type)                 Output Shape              Param #   
=================================================================
operator_1 (Operator)        (1, 5000, 1)              1         
_________________________________________________________________
reshape_1 (Reshape)          (1, 5000, 1)              0         
_________________________________________________________________
my_dense_1 (MyDense)         (1, 5000, 20)             40        
_________________________________________________________________
my_simple_dense_1 (MySimpleD (1, 5000, 1)              21        
=================================================================
Total params: 62
Trainable params: 62
Non-trainable params: 0
_________________________________________________________________
_________________________________________________________________
Layer (type)                 Output Shape              Param #   
=================================================================
operator_2 (Operator)        (1, 5000, 1)              1         
_________________________________________________________________
reshape_2 (Reshape)          (1, 5000, 1)              0         
_________________________________________________________________
my_dense_2 (MyDense)         (1, 5000, 20)             40        
_________________________________________________________________
my_simple_dense_2 (MySimpleD (1, 5000, 1)              21        
=================================================================
Total params: 62
Trainable params: 62
Non-trainable params: 0
_________________________________________________________________
_________________________________________________________________
Layer (type)                 Output Shape              Param #   
=================================================================
operator_3 (Operator)        (1, 5000, 1)              1         
_________________________________________________________________
reshape_3 (Reshape)          (1, 5000, 1)              0         
_________________________________________________________________
my_dense_3 (MyDense)         (1, 5000, 20)             40        
_________________________________________________________________
my_simple_dense_3 (MySimpleD (1, 5000, 1)              21        
=================================================================
Total params: 62
Trainable params: 62
Non-trainable params: 0
_________________________________________________________________
_________________________________________________________________
Layer (type)                 Output Shape              Param #   
=================================================================
operator_4 (Operator)        (1, 5000, 1)              1         
_________________________________________________________________
reshape_4 (Reshape)          (1, 5000, 1)              0         
_________________________________________________________________
my_dense_4 (MyDense)         (1, 5000, 20)             40        
_________________________________________________________________
my_simple_dense_4 (MySimpleD (1, 5000, 1)              21        
=================================================================
Total params: 62
Trainable params: 62
Non-trainable params: 0
_________________________________________________________________
_________________________________________________________________
Layer (type)                 Output Shape              Param #   
=================================================================
operator_5 (Operator)        (1, 5000, 1)              1         
_________________________________________________________________
reshape_5 (Reshape)          (1, 5000, 1)              0         
_________________________________________________________________
my_dense_5 (MyDense)         (1, 5000, 20)             40        
_________________________________________________________________
my_simple_dense_5 (MySimpleD (1, 5000, 1)              21        
=================================================================
Total params: 62
Trainable params: 62
Non-trainable params: 0
_________________________________________________________________
_________________________________________________________________
Layer (type)                 Output Shape              Param #   
=================================================================
operator_6 (Operator)        (1, 5000, 1)              1         
_________________________________________________________________
reshape_6 (Reshape)          (1, 5000, 1)              0         
_________________________________________________________________
my_dense_6 (MyDense)         (1, 5000, 20)             40        
_________________________________________________________________
my_simple_dense_6 (MySimpleD (1, 5000, 1)              21        
=================================================================
Total params: 62
Trainable params: 62
Non-trainable params: 0
_________________________________________________________________
_________________________________________________________________
Layer (type)                 Output Shape              Param #   
=================================================================
operator_7 (Operator)        (1, 5000, 1)              1         
_________________________________________________________________
reshape_7 (Reshape)          (1, 5000, 1)              0         
_________________________________________________________________
my_dense_7 (MyDense)         (1, 5000, 20)             40        
_________________________________________________________________
my_simple_dense_7 (MySimpleD (1, 5000, 1)              21        
=================================================================
Total params: 62
Trainable params: 62
Non-trainable params: 0
_________________________________________________________________
_________________________________________________________________
Layer (type)                 Output Shape              Param #   
=================================================================
operator_8 (Operator)        (1, 5000, 1)              1         
_________________________________________________________________
reshape_8 (Reshape)          (1, 5000, 1)              0         
_________________________________________________________________
my_dense_8 (MyDense)         (1, 5000, 20)             40        
_________________________________________________________________
my_simple_dense_8 (MySimpleD (1, 5000, 1)              21        
=================================================================
Total params: 62
Trainable params: 62
Non-trainable params: 0
_________________________________________________________________
_________________________________________________________________
Layer (type)                 Output Shape              Param #   
=================================================================
operator_9 (Operator)        (1, 5000, 1)              1         
_________________________________________________________________
reshape_9 (Reshape)          (1, 5000, 1)              0         
_________________________________________________________________
my_dense_9 (MyDense)         (1, 5000, 20)             40        2019-02-18 23:25:12 DEBUG core:82 Initialize *weight* randomly...
2019-02-18 23:25:14 DEBUG core:82 Initialize *weight* randomly...
2019-02-18 23:25:17 DEBUG core:82 Initialize *weight* randomly...
2019-02-18 23:25:20 DEBUG core:82 Initialize *weight* randomly...
2019-02-18 23:25:23 DEBUG core:82 Initialize *weight* randomly...
2019-02-18 23:25:27 DEBUG core:82 Initialize *weight* randomly...
2019-02-18 23:25:30 DEBUG core:82 Initialize *weight* randomly...
2019-02-18 23:25:34 DEBUG core:82 Initialize *weight* randomly...
2019-02-18 23:25:38 DEBUG core:82 Initialize *weight* randomly...
2019-02-18 23:25:42 DEBUG core:82 Initialize *weight* randomly...

_________________________________________________________________
my_simple_dense_9 (MySimpleD (1, 5000, 1)              21        
=================================================================
Total params: 62
Trainable params: 62
Non-trainable params: 0
_________________________________________________________________
_________________________________________________________________
Layer (type)                 Output Shape              Param #   
=================================================================
operator_10 (Operator)       (1, 5000, 1)              1         
_________________________________________________________________
reshape_10 (Reshape)         (1, 5000, 1)              0         
_________________________________________________________________
my_dense_10 (MyDense)        (1, 5000, 20)             40        
_________________________________________________________________
my_simple_dense_10 (MySimple (1, 5000, 1)              21        
=================================================================
Total params: 62
Trainable params: 62
Non-trainable params: 0
_________________________________________________________________
_________________________________________________________________
Layer (type)                 Output Shape              Param #   
=================================================================
operator_11 (Operator)       (1, 5000, 1)              1         
_________________________________________________________________
reshape_11 (Reshape)         (1, 5000, 1)              0         
_________________________________________________________________
my_dense_11 (MyDense)        (1, 5000, 20)             40        
_________________________________________________________________
my_simple_dense_11 (MySimple (1, 5000, 1)              21        
=================================================================
Total params: 62
Trainable params: 62
Non-trainable params: 0
_________________________________________________________________
_________________________________________________________________
Layer (type)                 Output Shape              Param #   
=================================================================
operator_12 (Operator)       (1, 5000, 1)              1         
_________________________________________________________________
reshape_12 (Reshape)         (1, 5000, 1)              0         
_________________________________________________________________
my_dense_12 (MyDense)        (1, 5000, 20)             40        
_________________________________________________________________
my_simple_dense_12 (MySimple (1, 5000, 1)              21        
=================================================================
Total params: 62
Trainable params: 62
Non-trainable params: 0
_________________________________________________________________
_________________________________________________________________
Layer (type)                 Output Shape              Param #   
=================================================================
operator_13 (Operator)       (1, 5000, 1)              1         
_________________________________________________________________
reshape_13 (Reshape)         (1, 5000, 1)              0         
_________________________________________________________________
my_dense_13 (MyDense)        (1, 5000, 20)             40        
_________________________________________________________________
my_simple_dense_13 (MySimple (1, 5000, 1)              21        
=================================================================
Total params: 62
Trainable params: 62
Non-trainable params: 0
_________________________________________________________________
_________________________________________________________________
Layer (type)                 Output Shape              Param #   
=================================================================
operator_14 (Operator)       (1, 5000, 1)              1         
_________________________________________________________________
reshape_14 (Reshape)         (1, 5000, 1)              0         
_________________________________________________________________
my_dense_14 (MyDense)        (1, 5000, 20)             40        
_________________________________________________________________
my_simple_dense_14 (MySimple (1, 5000, 1)              21        
=================================================================
Total params: 62
Trainable params: 62
Non-trainable params: 0
_________________________________________________________________
_________________________________________________________________
Layer (type)                 Output Shape              Param #   
=================================================================
operator_15 (Operator)       (1, 5000, 1)              1         
_________________________________________________________________
reshape_15 (Reshape)         (1, 5000, 1)              0         
_________________________________________________________________
my_dense_15 (MyDense)        (1, 5000, 20)             40        
_________________________________________________________________
my_simple_dense_15 (MySimple (1, 5000, 1)              21        
=================================================================
Total params: 62
Trainable params: 62
Non-trainable params: 0
_________________________________________________________________
_________________________________________________________________
Layer (type)                 Output Shape              Param #   
=================================================================
operator_16 (Operator)       (1, 5000, 1)              1         
_________________________________________________________________
reshape_16 (Reshape)         (1, 5000, 1)              0         
_________________________________________________________________
my_dense_16 (MyDense)        (1, 5000, 20)             40        
_________________________________________________________________
my_simple_dense_16 (MySimple (1, 5000, 1)              21        
=================================================================
Total params: 62
Trainable params: 62
Non-trainable params: 0
_________________________________________________________________
_________________________________________________________________
Layer (type)                 Output Shape              Param #   
=================================================================
operator_17 (Operator)       (1, 5000, 1)              1         
_________________________________________________________________
reshape_17 (Reshape)         (1, 5000, 1)              0         
_________________________________________________________________
my_dense_17 (MyDense)        (1, 5000, 20)             40        
_________________________________________________________________
my_simple_dense_17 (MySimple (1, 5000, 1)              21        
=================================================================
Total params: 62
Trainable params: 62
Non-trainable params: 0
_________________________________________________________________
_________________________________________________________________
Layer (type)                 Output Shape              Param #   
=================================================================
operator_18 (Operator)       (1, 5000, 1)              1         
_________________________________________________________________
reshape_18 (Reshape)         (1, 5000, 1)              0         
_________________________________________________________________
my_dense_18 (MyDense)        (1, 5000, 20)             40        
_________________________________________________________________
my_simple_dense_18 (MySimple (1, 5000, 1)              21        
=================================================================
Total params: 62
Trainable params: 62
Non-trainable params: 0
_________________________________________________________________
_________________________________________________________________
Layer (type)                 Output Shape              Param #   
=================================================================2019-02-18 23:25:46 DEBUG core:82 Initialize *weight* randomly...
2019-02-18 23:25:51 DEBUG core:82 Initialize *weight* randomly...
2019-02-18 23:25:56 DEBUG core:82 Initialize *weight* randomly...
2019-02-18 23:26:01 DEBUG core:82 Initialize *weight* randomly...
2019-02-18 23:26:07 DEBUG core:82 Initialize *weight* randomly...
2019-02-18 23:26:13 DEBUG core:82 Initialize *weight* randomly...
2019-02-18 23:26:19 DEBUG core:82 Initialize *weight* randomly...
2019-02-18 23:26:25 DEBUG core:82 Initialize *weight* randomly...
2019-02-18 23:26:32 DEBUG core:82 Initialize *weight* randomly...

operator_19 (Operator)       (1, 5000, 1)              1         
_________________________________________________________________
reshape_19 (Reshape)         (1, 5000, 1)              0         
_________________________________________________________________
my_dense_19 (MyDense)        (1, 5000, 20)             40        
_________________________________________________________________
my_simple_dense_19 (MySimple (1, 5000, 1)              21        
=================================================================
Total params: 62
Trainable params: 62
Non-trainable params: 0
_________________________________________________________________
_________________________________________________________________
Layer (type)                 Output Shape              Param #   
=================================================================
operator_20 (Operator)       (1, 5000, 1)              1         
_________________________________________________________________
reshape_20 (Reshape)         (1, 5000, 1)              0         
_________________________________________________________________
my_dense_20 (MyDense)        (1, 5000, 20)             40        
_________________________________________________________________
my_simple_dense_20 (MySimple (1, 5000, 1)              21        
=================================================================
Total params: 62
Trainable params: 62
Non-trainable params: 0
_________________________________________________________________
_________________________________________________________________
Layer (type)                 Output Shape              Param #   
=================================================================
operator_21 (Operator)       (1, 5000, 1)              1         
_________________________________________________________________
reshape_21 (Reshape)         (1, 5000, 1)              0         
_________________________________________________________________
my_dense_21 (MyDense)        (1, 5000, 20)             40        
_________________________________________________________________
my_simple_dense_21 (MySimple (1, 5000, 1)              21        
=================================================================
Total params: 62
Trainable params: 62
Non-trainable params: 0
_________________________________________________________________
_________________________________________________________________
Layer (type)                 Output Shape              Param #   
=================================================================
operator_22 (Operator)       (1, 5000, 1)              1         
_________________________________________________________________
reshape_22 (Reshape)         (1, 5000, 1)              0         
_________________________________________________________________
my_dense_22 (MyDense)        (1, 5000, 20)             40        
_________________________________________________________________
my_simple_dense_22 (MySimple (1, 5000, 1)              21        
=================================================================
Total params: 62
Trainable params: 62
Non-trainable params: 0
_________________________________________________________________
_________________________________________________________________
Layer (type)                 Output Shape              Param #   
=================================================================
operator_23 (Operator)       (1, 5000, 1)              1         
_________________________________________________________________
reshape_23 (Reshape)         (1, 5000, 1)              0         
_________________________________________________________________
my_dense_23 (MyDense)        (1, 5000, 20)             40        
_________________________________________________________________
my_simple_dense_23 (MySimple (1, 5000, 1)              21        
=================================================================
Total params: 62
Trainable params: 62
Non-trainable params: 0
_________________________________________________________________
_________________________________________________________________
Layer (type)                 Output Shape              Param #   
=================================================================
operator_24 (Operator)       (1, 5000, 1)              1         
_________________________________________________________________
reshape_24 (Reshape)         (1, 5000, 1)              0         
_________________________________________________________________
my_dense_24 (MyDense)        (1, 5000, 20)             40        
_________________________________________________________________
my_simple_dense_24 (MySimple (1, 5000, 1)              21        
=================================================================
Total params: 62
Trainable params: 62
Non-trainable params: 0
_________________________________________________________________
_________________________________________________________________
Layer (type)                 Output Shape              Param #   
=================================================================
operator_25 (Operator)       (1, 5000, 1)              1         
_________________________________________________________________
reshape_25 (Reshape)         (1, 5000, 1)              0         
_________________________________________________________________
my_dense_25 (MyDense)        (1, 5000, 20)             40        
_________________________________________________________________
my_simple_dense_25 (MySimple (1, 5000, 1)              21        
=================================================================
Total params: 62
Trainable params: 62
Non-trainable params: 0
_________________________________________________________________
_________________________________________________________________
Layer (type)                 Output Shape              Param #   
=================================================================
operator_26 (Operator)       (1, 5000, 1)              1         
_________________________________________________________________
reshape_26 (Reshape)         (1, 5000, 1)              0         
_________________________________________________________________
my_dense_26 (MyDense)        (1, 5000, 20)             40        
_________________________________________________________________
my_simple_dense_26 (MySimple (1, 5000, 1)              21        
=================================================================
Total params: 62
Trainable params: 62
Non-trainable params: 0
_________________________________________________________________
_________________________________________________________________
Layer (type)                 Output Shape              Param #   
=================================================================
operator_27 (Operator)       (1, 5000, 1)              1         
_________________________________________________________________
reshape_27 (Reshape)         (1, 5000, 1)              0         
_________________________________________________________________
my_dense_27 (MyDense)        (1, 5000, 20)             40        
_________________________________________________________________
my_simple_dense_27 (MySimple (1, 5000, 1)              21        
=================================================================
Total params: 62
Trainable params: 62
Non-trainable params: 0
_________________________________________________________________
_________________________________________________________________
Layer (type)                 Output Shape              Param #   
=================================================================
operator_28 (Operator)       (1, 5000, 1)              1         
_________________________________________________________________
reshape_28 (Reshape)         (1, 5000, 1)              0         
_________________________________________________________________
my_dense_28 (MyDense)        (1, 5000, 20)             40        
_________________________________________________________________
my_simple_dense_28 (MySimple (1, 5000, 1)              21        
=================================================================2019-02-18 23:26:39 DEBUG core:82 Initialize *weight* randomly...
2019-02-18 23:26:46 DEBUG core:82 Initialize *weight* randomly...
2019-02-18 23:26:54 DEBUG core:82 Initialize *weight* randomly...
2019-02-18 23:27:02 DEBUG core:82 Initialize *weight* randomly...
2019-02-18 23:27:09 DEBUG core:82 Initialize *weight* randomly...
…
2019-02-18 23:27:28 DEBUG core:82 Initialize *weight* randomly...
2019-02-18 23:27:40 DEBUG core:82 Initialize *weight* randomly...
2019-02-18 23:27:48 DEBUG core:82 Initialize *weight* randomly...
2019-02-18 23:27:58 DEBUG core:82 Initialize *weight* randomly...

Total params: 62
Trainable params: 62
Non-trainable params: 0
_________________________________________________________________
_________________________________________________________________
Layer (type)                 Output Shape              Param #   
=================================================================
operator_29 (Operator)       (1, 5000, 1)              1         
_________________________________________________________________
reshape_29 (Reshape)         (1, 5000, 1)              0         
_________________________________________________________________
my_dense_29 (MyDense)        (1, 5000, 20)             40        
_________________________________________________________________
my_simple_dense_29 (MySimple (1, 5000, 1)              21        
=================================================================
Total params: 62
Trainable params: 62
Non-trainable params: 0
_________________________________________________________________
_________________________________________________________________
Layer (type)                 Output Shape              Param #   
=================================================================
operator_30 (Operator)       (1, 5000, 1)              1         
_________________________________________________________________
reshape_30 (Reshape)         (1, 5000, 1)              0         
_________________________________________________________________
my_dense_30 (MyDense)        (1, 5000, 20)             40        
_________________________________________________________________
my_simple_dense_30 (MySimple (1, 5000, 1)              21        
=================================================================
Total params: 62
Trainable params: 62
Non-trainable params: 0
_________________________________________________________________
_________________________________________________________________
Layer (type)                 Output Shape              Param #   
=================================================================
operator_31 (Operator)       (1, 5000, 1)              1         
_________________________________________________________________
reshape_31 (Reshape)         (1, 5000, 1)              0         
_________________________________________________________________
my_dense_31 (MyDense)        (1, 5000, 20)             40        
_________________________________________________________________
my_simple_dense_31 (MySimple (1, 5000, 1)              21        
=================================================================
Total params: 62
Trainable params: 62
Non-trainable params: 0
_________________________________________________________________
_________________________________________________________________
Layer (type)                 Output Shape              Param #   
=================================================================
operator_32 (Operator)       (1, 5000, 1)              1         
_________________________________________________________________
reshape_32 (Reshape)         (1, 5000, 1)              0         
_________________________________________________________________
my_dense_32 (MyDense)        (1, 5000, 20)             40        
_________________________________________________________________
my_simple_dense_32 (MySimple (1, 5000, 1)              21        
=================================================================
Total params: 62
Trainable params: 62
Non-trainable params: 0
_________________________________________________________________
_________________________________________________________________
Layer (type)                 Output Shape              Param #   
=================================================================
operator_33 (Operator)       (1, 5000, 1)              1         
_________________________________________________________________
reshape_33 (Reshape)         (1, 5000, 1)              0         
_________________________________________________________________
my_dense_33 (MyDense)        (1, 5000, 20)             40        
_________________________________________________________________
my_simple_dense_33 (MySimple (1, 5000, 1)              21        
=================================================================
Total params: 62
Trainable params: 62
Non-trainable params: 0
_________________________________________________________________
_________________________________________________________________
Layer (type)                 Output Shape              Param #   
=================================================================
operator_34 (Operator)       (1, 5000, 1)              1         
_________________________________________________________________
reshape_34 (Reshape)         (1, 5000, 1)              0         
_________________________________________________________________
my_dense_34 (MyDense)        (1, 5000, 20)             40        
_________________________________________________________________
my_simple_dense_34 (MySimple (1, 5000, 1)              21        
=================================================================
Total params: 62
Trainable params: 62
Non-trainable params: 0
_________________________________________________________________
_________________________________________________________________
Layer (type)                 Output Shape              Param #   
=================================================================
operator_35 (Operator)       (1, 5000, 1)              1         
_________________________________________________________________
reshape_35 (Reshape)         (1, 5000, 1)              0         
_________________________________________________________________
my_dense_35 (MyDense)        (1, 5000, 20)             40        
_________________________________________________________________
my_simple_dense_35 (MySimple (1, 5000, 1)              21        
=================================================================
Total params: 62
Trainable params: 62
Non-trainable params: 0
_________________________________________________________________
_________________________________________________________________
Layer (type)                 Output Shape              Param #   
=================================================================
operator_36 (Operator)       (1, 5000, 1)              1         
_________________________________________________________________
reshape_36 (Reshape)         (1, 5000, 1)              0         
_________________________________________________________________
my_dense_36 (MyDense)        (1, 5000, 20)             40        
_________________________________________________________________
my_simple_dense_36 (MySimple (1, 5000, 1)              21        
=================================================================
Total params: 62
Trainable params: 62
Non-trainable params: 0
_________________________________________________________________
_________________________________________________________________
Layer (type)                 Output Shape              Param #   
=================================================================
operator_37 (Operator)       (1, 5000, 1)              1         
_________________________________________________________________
reshape_37 (Reshape)         (1, 5000, 1)              0         
_________________________________________________________________
my_dense_37 (MyDense)        (1, 5000, 20)             40        
_________________________________________________________________
my_simple_dense_37 (MySimple (1, 5000, 1)              21        
=================================================================
Total params: 62
Trainable params: 62
Non-trainable params: 0
_________________________________________________________________
_________________________________________________________________
Layer (type)                 Output Shape              Param #   
=================================================================
operator_38 (Operator)       (1, 5000, 1)              1         
_________________________________________________________________
reshape_38 (Reshape)         (1, 5000, 1)              0         2019-02-18 23:28:09 DEBUG core:82 Initialize *weight* randomly...
2019-02-18 23:28:21 DEBUG core:323 reshape inputs to: (1, 5000, 1)
2019-02-18 23:31:42 DEBUG core:645 Epoch: 1, Loss: 189.62252807617188
2019-02-18 23:31:49 DEBUG core:645 Epoch: 2, Loss: 189.79954528808594
2019-02-18 23:31:56 DEBUG core:645 Epoch: 3, Loss: 189.68756103515625
2019-02-18 23:32:02 DEBUG core:645 Epoch: 4, Loss: 189.56361389160156
…
2019-02-19 06:42:23 DEBUG core:670 play play-37 cost time 3.382380485534668 s
2019-02-19 06:42:23 DEBUG core:323 reshape inputs to: (1, 5000, 1)
2019-02-19 06:42:26 DEBUG core:670 play play-38 cost time 3.3969390392303467 s
2019-02-19 06:42:26 DEBUG core:323 reshape inputs to: (1, 5000, 1)
2019-02-19 06:42:30 DEBUG core:670 play play-39 cost time 3.44380784034729 s
2019-02-19 06:42:30 DEBUG core:323 reshape inputs to: (1, 5000, 1)
2019-02-19 06:42:33 DEBUG core:670 play play-40 cost time 3.5146689414978027 s
2019-02-19 06:42:33 DEBUG __main__:42 loss: 0.0038813105784356594

_________________________________________________________________
my_dense_38 (MyDense)        (1, 5000, 20)             40        
_________________________________________________________________
my_simple_dense_38 (MySimple (1, 5000, 1)              21        
=================================================================
Total params: 62
Trainable params: 62
Non-trainable params: 0
_________________________________________________________________
_________________________________________________________________
Layer (type)                 Output Shape              Param #   
=================================================================
operator_39 (Operator)       (1, 5000, 1)              1         
_________________________________________________________________
reshape_39 (Reshape)         (1, 5000, 1)              0         
_________________________________________________________________
my_dense_39 (MyDense)        (1, 5000, 20)             40        
_________________________________________________________________
my_simple_dense_39 (MySimple (1, 5000, 1)              21        
=================================================================
Total params: 62
Trainable params: 62
Non-trainable params: 0
_________________________________________________________________
